…
  type: "VideoData"
  top: "data"
  top: "label"
  include {
    phase: TEST
  }
  transform_param {
    mirror: false
    crop_size: 112
    mean_value: 128
    mean_value: 128
    mean_value: 128
  }
  video_data_param {
    source: "/data/sparks/share/asl/experiments/datasets/test/aligned_gctw_sample_test_reduced_fps_class/test_c43.txt"
    batch_size: 1
    shuffle: true
    new_length: 45
    new_height: 128
    new_width: 171
    root_folder: "/data/sparks/share/asl/experiments/datasets/test/aligned_gctw_sample_test_reduced_fps_class/43/"
  }
}
layer {
  name: "conv1a"
  type: "Convolution"
  bottom: "data"
  top: "conv1a"
  param {
    lr_mult: 1
    decay_mult: 1
  }
  param {
    lr_mult: 2
    decay_mult: 0
  }
  convolution_param {
    num_output: 64
    pad: 1
    pad: 1
    pad: 1
    kernel_size: 3
    kernel_size: 3
    kernel_size: 3
    weight_filler {
      type: "gaussian"
      std: 0.01
    }
    bias_filler {
      type: "constant"
      value: 0
    }
  }
}
layer {
  name: "relu1a"
  type: "ReLU"
  bottom: "conv1a"
  top: "conv1a"
}
layer {
  name: "pool1"
  type: "Pooling"
  bottom: "conv1a"
  top: "pool1"
  pooling_param {
    pool: MAX
    kernel_size: 1
    kernel_size: 2
    kernel_size: 2
    stride: 1
    stride: 2
    stride: 2
  }
}
layer {
  name: "conv2a"
  type: "Convolution"
  bottom: "pool1"
  top: "conv2a"
  param {
    lr_mult: 1
    decay_mult: 1
  }
  param {
    lr_mult: 2
    decay_mult: 0
  }
  convolution_param {
    num_output: 128
    pad: 1
    pad: 1
    pad: 1
    kernel_size: 3
    kernel_size: 3
    kernel_size: 3
    weight_filler {
      type: "gaussian"
      std: 0.01
    }
    bias_filler {
      type: "constant"
      value: 1
    }
  }
}
layer {
  name: "relu2a"
  type: "ReLU"
  bottom: "conv2a"
  top: "conv2a"
}
layer {
  name: "pool2"
  type: "Pooling"
  bottom: "conv2a"
  top: "pool2"
  pooling_param {
    pool: MAX
    kernel_size: 2
    kernel_size: 2
    kernel_size: 2
    stride: 2
    stride: 2
    stride: 2
  }
}
layer {
  name: "conv3a"
  type: "Convolution"
  bottom: "pool2"
  top: "conv3a"
  param {
    lr_mult: 1
    decay_mult: 1
  }
  param {
    lr_mult: 2
    decay_mult: 0
  }
  convolution_param {
    num_output: 256
    pad: 1
    pad: 1
    pad: 1
    kernel_size: 3
    kernel_size: 3
    kernel_size: 3
    weight_filler {
      type: "gaussian"
      std: 0.01
    }
    bias_filler {
      type: "constant"
      value: 1
    }
  }
}
layer {
  name: "relu3a"
  type: "ReLU"
  bottom: "conv3a"
  top: "conv3a"
}
layer {
  name: "conv3b"
  type: "Convolution"
  bottom: "conv3a"
  top: "conv3b"
  param {
    lr_mult: 1
    decay_mult: 1
  }
  param {
    lr_mult: 2
    decay_mult: 0
  }
  convolution_param {
    num_output: 256
    pad: 1
    pad: 1
    pad: 1
    kernel_size: 3
    kernel_size: 3
    kernel_size: 3
    weight_filler {
      type: "gaussian"
      std: 0.01
    }
    bias_filler {
      type: "constant"
      value: 1
    }
  }
}
layer {
  name: "relu3b"
  type: "ReLU"
  bottom: "conv3b"
  top: "conv3b"
}
layer {
  name: "pool3"
  type: "Pooling"
  bottom: "conv3b"
  top: "pool3"
  pooling_param {
    pool: MAX
    kernel_size: 2
    kernel_size: 2
    kernel_size: 2
    stride: 2
    stride: 2
    stride: 2
  }
}
layer {
  name: "conv4a"
  type: "Convolution"
  bottom: "pool3"
  top: "conv4a"
  param {
    lr_mult: 1
    decay_mult: 1
  }
  param {
    lr_mult: 2
    decay_mult: 0
  }
  convolution_param {
    num_output: 512
    pad: 1
    pad: 1
    pad: 1
    kernel_size: 3
    kernel_size: 3
    kernel_size: 3
    weight_filler {
      type: "gaussian"
      std: 0.01
    }
    bias_filler {
      type: "constant"
      value: 1
    }
  }
}
layer {
  name: "relu4a"
  type: "ReLU"
  bottom: "conv4a"
  top: "conv4a"
}
layer {
  name: "conv4b"
  type: "Convolution"
  bottom: "conv4a"
  top: "conv4b"
  param {
    lr_mult: 1
    decay_mult: 1
  }
  param {
    lr_mult: 2
    decay_mult: 0
  }
  convolution_param {
    num_output: 512
    pad: 1
    pad: 1
    pad: 1
    kernel_size: 3
    kernel_size: 3
    kernel_size: 3
    weight_filler {
      type: "gaussian"
      std: 0.01
    }
    bias_filler {
      type: "constant"
      value: 1
    }
  }
}
layer {
  name: "relu4b"
  type: "ReLU"
  bottom: "conv4b"
  top: "conv4b"
}
layer {
  name: "pool4"
  type: "Pooling"
  bottom: "conv4b"
  top: "pool4"
  pooling_param {
    pool: MAX
    kernel_size: 2
    kernel_size: 2
    kernel_size: 2
    stride: 2
    stride: 2
    stride: 2
  }
}
layer {
  name: "conv5a"
  type: "Convolution"
  bottom: "pool4"
  top: "conv5a"
  param {
    lr_mult: 1
    decay_mult: 1
  }
  param {
    lr_mult: 2
    decay_mult: 0
  }
  convolution_param {
    num_output: 512
    pad: 1
    pad: 1
    pad: 1
    kernel_size: 3
    kernel_size: 3
    kernel_size: 3
    weight_filler {
      type: "gaussian"
      std: 0.01
    }
    bias_filler {
      type: "constant"
      value: 1
    }
  }
}
layer {
  name: "relu5a"
  type: "ReLU"
  bottom: "conv5a"
  top: "conv5a"
}
layer {
  name: "conv5b"
  type: "Convolution"
  bottom: "conv5a"
  top: "conv5b"
  param {
    lr_mult: 1
    decay_mult: 1
  }
  param {
    lr_mult: 2
    decay_mult: 0
  }
  convolution_param {
    num_output: 512
    pad: 1
    pad: 1
    pad: 1
    kernel_size: 3
    kernel_size: 3
    kernel_size: 3
    weight_filler {
      type: "gaussian"
      std: 0.01
    }
    bias_filler {
      type: "constant"
      value: 1
    }
  }
}
layer {
  name: "relu5b"
  type: "ReLU"
  bottom: "conv5b"
  top: "conv5b"
}
layer {
  name: "pool5"
  type: "Pooling"
  bottom: "conv5b"
  top: "pool5"
  pooling_param {
    pool: MAX
    kernel_size: 2
    kernel_size: 2
    kernel_size: 2
    stride: 2
    stride: 2
    stride: 2
  }
}
layer {
  name: "fc6-new"
  type: "InnerProduct"
  bottom: "pool5"
  top: "fc6-new"
  param {
    lr_mult: 1
    decay_mult: 1
  }
  param {
    lr_mult: 2
    decay_mult: 0
  }
  inner_product_param {
    num_output: 2048
    weight_filler {
      type: "gaussian"
      std: 0.005
    }
    bias_filler {
      type: "constant"
      value: 1
    }
  }
}
layer {
  name: "relu6"
  type: "ReLU"
  bottom: "fc6-new"
  top: "fc6-new"
}
layer {
  name: "drop6"
  type: "Dropout"
  bottom: "fc6-new"
  top: "fc6-new"
  dropout_param {
    dropout_ratio: 0.5
  }
}
layer {
  name: "fc7-new"
  type: "InnerProduct"
  bottom: "fc6-new"
  top: "fc7-new"
  param {
    lr_mult: 1
    decay_mult: 1
  }
  param {
    lr_mult: 2
    decay_mult: 0
  }
  inner_product_param {
    num_output: 2048
    weight_filler {
      type: "gaussian"
      std: 0.005
    }
    bias_filler {
      type: "constant"
      value: 1
    }
  }
}
layer {
  name: "relu7"
  type: "ReLU"
  bottom: "fc7-new"
  top: "fc7-new"
}
layer {
  name: "drop7"
  type: "Dropout"
  bottom: "fc7-new"
  top: "fc7-new"
  dropout_param {
    dropout_ratio: 0.5
  }
}
layer {
  name: "fc8-new"
  type: "InnerProduct"
  bottom: "fc7-new"
  top: "fc8-new"
  param {
    lr_mult: 1
    decay_mult: 1
  }
  param {
    lr_mult: 2
    decay_mult: 0
  }
  inner_product_param {
    num_output: 43
    weight_filler {
      type: "gaussian"
      std: 0.01
    }
    bias_filler {
      type: "constant"
      value: 0
    }
  }
}
layer {
  name: "prob"
  type: "Softmax"
  bottom: "fc8-new"
  top: "prob"
  include {
    phase: TEST
  }
}
layer {
  name: "loss"
  type: "SoftmaxWithLoss"
  bottom: "fc8-new"
  bottom: "label"
  top: "loss"
}
I0128 22:59:10.803912 97920 layer_factory.hpp:77] Creating layer data
I0128 22:59:10.804517 97920 net.cpp:100] Creating Layer data
I0128 22:59:10.805114 97920 net.cpp:408] data -> data
I0128 22:59:10.805600 97920 net.cpp:408] data -> label
I0128 22:59:10.806155 97920 video_data_layer.cpp:39] Opening file /data/sparks/share/asl/experiments/datasets/test/aligned_gctw_sample_test_reduced_fps_class/test_c43.txt
I0128 22:59:10.830628 97920 video_data_layer.cpp:54] Shuffling data
I0128 22:59:10.831742 97920 video_data_layer.cpp:59] A total of 6 video chunks.
I0128 22:59:11.586752 97920 video_data_layer.cpp:100] output data size: 1,3,45,112,112
I0128 22:59:11.602804 97920 net.cpp:150] Setting up data
I0128 22:59:11.603514 97920 net.cpp:157] Top shape: 1 3 45 112 112 (1693440)
I0128 22:59:11.604094 97920 net.cpp:157] Top shape: 1 (1)
I0128 22:59:11.604601 97920 net.cpp:165] Memory required for data: 6773764
I0128 22:59:11.605149 97920 layer_factory.hpp:77] Creating layer conv1a
I0128 22:59:11.605571 97920 net.cpp:100] Creating Layer conv1a
I0128 22:59:11.605999 97920 net.cpp:434] conv1a <- data
I0128 22:59:11.606390 97920 net.cpp:408] conv1a -> conv1a
I0128 22:59:11.880198 97920 net.cpp:150] Setting up conv1a
I0128 22:59:11.880933 97920 net.cpp:157] Top shape: 1 64 45 112 112 (36126720)
I0128 22:59:11.881530 97920 net.cpp:165] Memory required for data: 151280644
I0128 22:59:11.882349 97920 layer_factory.hpp:77] Creating layer relu1a
I0128 22:59:11.883013 97920 net.cpp:100] Creating Layer relu1a
I0128 22:59:11.883635 97920 net.cpp:434] relu1a <- conv1a
I0128 22:59:11.884244 97920 net.cpp:395] relu1a -> conv1a (in-place)
I0128 22:59:11.885076 97920 net.cpp:150] Setting up relu1a
I0128 22:59:11.885643 97920 net.cpp:157] Top shape: 1 64 45 112 112 (36126720)
I0128 22:59:11.886142 97920 net.cpp:165] Memory required for data: 295787524
I0128 22:59:11.886652 97920 layer_factory.hpp:77] Creating layer pool1
I0128 22:59:11.887099 97920 net.cpp:100] Creating Layer pool1
I0128 22:59:11.887502 97920 net.cpp:434] pool1 <- conv1a
I0128 22:59:11.887915 97920 net.cpp:408] pool1 -> pool1
I0128 22:59:11.889274 97920 net.cpp:150] Setting up pool1
I0128 22:59:11.889693 97920 net.cpp:157] Top shape: 1 64 45 56 56 (9031680)
I0128 22:59:11.890144 97920 net.cpp:165] Memory required for data: 331914244
I0128 22:59:11.890522 97920 layer_factory.hpp:77] Creating layer conv2a
I0128 22:59:11.891000 97920 net.cpp:100] Creating Layer conv2a
I0128 22:59:11.891464 97920 net.cpp:434] conv2a <- pool1
I0128 22:59:11.891909 97920 net.cpp:408] conv2a -> conv2a
I0128 22:59:11.901134 97920 net.cpp:150] Setting up conv2a
I0128 22:59:11.901574 97920 net.cpp:157] Top shape: 1 128 45 56 56 (18063360)
I0128 22:59:11.902042 97920 net.cpp:165] Memory required for data: 404167684
I0128 22:59:11.902571 97920 layer_factory.hpp:77] Creating layer relu2a
I0128 22:59:11.903059 97920 net.cpp:100] Creating Layer relu2a
I0128 22:59:11.903532 97920 net.cpp:434] relu2a <- conv2a
I0128 22:59:11.903976 97920 net.cpp:395] relu2a -> conv2a (in-place)
I0128 22:59:11.904755 97920 net.cpp:150] Setting up relu2a
I0128 22:59:11.905140 97920 net.cpp:157] Top shape: 1 128 45 56 56 (18063360)
I0128 22:59:11.905493 97920 net.cpp:165] Memory required for data: 476421124
I0128 22:59:11.905930 97920 layer_factory.hpp:77] Creating layer pool2
I0128 22:59:11.906453 97920 net.cpp:100] Creating Layer pool2
I0128 22:59:11.906909 97920 net.cpp:434] pool2 <- conv2a
I0128 22:59:11.907418 97920 net.cpp:408] pool2 -> pool2
I0128 22:59:11.908135 97920 net.cpp:150] Setting up pool2
I0128 22:59:11.908542 97920 net.cpp:157] Top shape: 1 128 23 28 28 (2308096)
I0128 22:59:11.908926 97920 net.cpp:165] Memory required for data: 485653508
I0128 22:59:11.909353 97920 layer_factory.hpp:77] Creating layer conv3a
I0128 22:59:11.909781 97920 net.cpp:100] Creating Layer conv3a
I0128 22:59:11.910159 97920 net.cpp:434] conv3a <- pool2
I0128 22:59:11.910506 97920 net.cpp:408] conv3a -> conv3a
I0128 22:59:11.938344 97920 net.cpp:150] Setting up conv3a
I0128 22:59:11.938845 97920 net.cpp:157] Top shape: 1 256 23 28 28 (4616192)
I0128 22:59:11.939371 97920 net.cpp:165] Memory required for data: 504118276
I0128 22:59:11.939909 97920 layer_factory.hpp:77] Creating layer relu3a
I0128 22:59:11.940448 97920 net.cpp:100] Creating Layer relu3a
I0128 22:59:11.940991 97920 net.cpp:434] relu3a <- conv3a
I0128 22:59:11.941519 97920 net.cpp:395] relu3a -> conv3a (in-place)
I0128 22:59:11.942364 97920 net.cpp:150] Setting up relu3a
I0128 22:59:11.942916 97920 net.cpp:157] Top shape: 1 256 23 28 28 (4616192)
I0128 22:59:11.943341 97920 net.cpp:165] Memory required for data: 522583044
I0128 22:59:11.943770 97920 layer_factory.hpp:77] Creating layer conv3b
I0128 22:59:11.944176 97920 net.cpp:100] Creating Layer conv3b
I0128 22:59:11.944623 97920 net.cpp:434] conv3b <- conv3a
I0128 22:59:11.944974 97920 net.cpp:408] conv3b -> conv3b
I0128 22:59:11.996754 97920 net.cpp:150] Setting up conv3b
I0128 22:59:11.997490 97920 net.cpp:157] Top shape: 1 256 23 28 28 (4616192)
I0128 22:59:11.998034 97920 net.cpp:165] Memory required for data: 541047812
I0128 22:59:11.998580 97920 layer_factory.hpp:77] Creating layer relu3b
I0128 22:59:11.999202 97920 net.cpp:100] Creating Layer relu3b
I0128 22:59:11.999774 97920 net.cpp:434] relu3b <- conv3b
I0128 22:59:12.000273 97920 net.cpp:395] relu3b -> conv3b (in-place)
I0128 22:59:12.001139 97920 net.cpp:150] Setting up relu3b
I0128 22:59:12.001659 97920 net.cpp:157] Top shape: 1 256 23 28 28 (4616192)
I0128 22:59:12.002164 97920 net.cpp:165] Memory required for data: 559512580
I0128 22:59:12.002606 97920 layer_factory.hpp:77] Creating layer pool3
I0128 22:59:12.003101 97920 net.cpp:100] Creating Layer pool3
I0128 22:59:12.003557 97920 net.cpp:434] pool3 <- conv3b
I0128 22:59:12.004042 97920 net.cpp:408] pool3 -> pool3
I0128 22:59:12.005424 97920 net.cpp:150] Setting up pool3
I0128 22:59:12.005908 97920 net.cpp:157] Top shape: 1 256 12 14 14 (602112)
I0128 22:59:12.006376 97920 net.cpp:165] Memory required for data: 561921028
I0128 22:59:12.006917 97920 layer_factory.hpp:77] Creating layer conv4a
I0128 22:59:12.007345 97920 net.cpp:100] Creating Layer conv4a
I0128 22:59:12.007824 97920 net.cpp:434] conv4a <- pool3
I0128 22:59:12.008229 97920 net.cpp:408] conv4a -> conv4a
I0128 22:59:12.112339 97920 net.cpp:150] Setting up conv4a
I0128 22:59:12.123138 97920 net.cpp:157] Top shape: 1 512 12 14 14 (1204224)
I0128 22:59:12.123759 97920 net.cpp:165] Memory required for data: 566737924
I0128 22:59:12.124356 97920 layer_factory.hpp:77] Creating layer relu4a
I0128 22:59:12.124864 97920 net.cpp:100] Creating Layer relu4a
I0128 22:59:12.125453 97920 net.cpp:434] relu4a <- conv4a
I0128 22:59:12.126061 97920 net.cpp:395] relu4a -> conv4a (in-place)
I0128 22:59:12.126860 97920 net.cpp:150] Setting up relu4a
I0128 22:59:12.127388 97920 net.cpp:157] Top shape: 1 512 12 14 14 (1204224)
I0128 22:59:12.127892 97920 net.cpp:165] Memory required for data: 571554820
I0128 22:59:12.128403 97920 layer_factory.hpp:77] Creating layer conv4b
I0128 22:59:12.128928 97920 net.cpp:100] Creating Layer conv4b
I0128 22:59:12.129364 97920 net.cpp:434] conv4b <- conv4a
I0128 22:59:12.129770 97920 net.cpp:408] conv4b -> conv4b
I0128 22:59:12.332518 97920 net.cpp:150] Setting up conv4b
I0128 22:59:12.333225 97920 net.cpp:157] Top shape: 1 512 12 14 14 (1204224)
I0128 22:59:12.333912 97920 net.cpp:165] Memory required for data: 576371716
I0128 22:59:12.334611 97920 layer_factory.hpp:77] Creating layer relu4b
I0128 22:59:12.335311 97920 net.cpp:100] Creating Layer relu4b
I0128 22:59:12.335933 97920 net.cpp:434] relu4b <- conv4b
I0128 22:59:12.336433 97920 net.cpp:395] relu4b -> conv4b (in-place)
I0128 22:59:12.337188 97920 net.cpp:150] Setting up relu4b
I0128 22:59:12.337797 97920 net.cpp:157] Top shape: 1 512 12 14 14 (1204224)
I0128 22:59:12.338304 97920 net.cpp:165] Memory required for data: 581188612
I0128 22:59:12.338865 97920 layer_factory.hpp:77] Creating layer pool4
I0128 22:59:12.339406 97920 net.cpp:100] Creating Layer pool4
I0128 22:59:12.339932 97920 net.cpp:434] pool4 <- conv4b
I0128 22:59:12.340399 97920 net.cpp:408] pool4 -> pool4
I0128 22:59:12.341306 97920 net.cpp:150] Setting up pool4
I0128 22:59:12.341764 97920 net.cpp:157] Top shape: 1 512 6 7 7 (150528)
I0128 22:59:12.342222 97920 net.cpp:165] Memory required for data: 581790724
I0128 22:59:12.342710 97920 layer_factory.hpp:77] Creating layer conv5a
I0128 22:59:12.343212 97920 net.cpp:100] Creating Layer conv5a
I0128 22:59:12.343757 97920 net.cpp:434] conv5a <- pool4
I0128 22:59:12.344193 97920 net.cpp:408] conv5a -> conv5a
I0128 22:59:12.548149 97920 net.cpp:150] Setting up conv5a
I0128 22:59:12.548699 97920 net.cpp:157] Top shape: 1 512 6 7 7 (150528)
I0128 22:59:12.549177 97920 net.cpp:165] Memory required for data: 582392836
I0128 22:59:12.549646 97920 layer_factory.hpp:77] Creating layer relu5a
I0128 22:59:12.550165 97920 net.cpp:100] Creating Layer relu5a
I0128 22:59:12.550653 97920 net.cpp:434] relu5a <- conv5a
I0128 22:59:12.551115 97920 net.cpp:395] relu5a -> conv5a (in-place)
I0128 22:59:12.551851 97920 net.cpp:150] Setting up relu5a
I0128 22:59:12.552310 97920 net.cpp:157] Top shape: 1 512 6 7 7 (150528)
I0128 22:59:12.552722 97920 net.cpp:165] Memory required for data: 582994948
I0128 22:59:12.553127 97920 layer_factory.hpp:77] Creating layer conv5b
I0128 22:59:12.553491 97920 net.cpp:100] Creating Layer conv5b
I0128 22:59:12.553844 97920 net.cpp:434] conv5b <- conv5a
I0128 22:59:12.554217 97920 net.cpp:408] conv5b -> conv5b
I0128 22:59:12.756685 97920 net.cpp:150] Setting up conv5b
I0128 22:59:12.757390 97920 net.cpp:157] Top shape: 1 512 6 7 7 (150528)
I0128 22:59:12.758052 97920 net.cpp:165] Memory required for data: 583597060
I0128 22:59:12.758622 97920 layer_factory.hpp:77] Creating layer relu5b
I0128 22:59:12.759181 97920 net.cpp:100] Creating Layer relu5b
I0128 22:59:12.759758 97920 net.cpp:434] relu5b <- conv5b
I0128 22:59:12.760313 97920 net.cpp:395] relu5b -> conv5b (in-place)
I0128 22:59:12.761737 97920 net.cpp:150] Setting up relu5b
I0128 22:59:12.762243 97920 net.cpp:157] Top shape: 1 512 6 7 7 (150528)
I0128 22:59:12.762678 97920 net.cpp:165] Memory required for data: 584199172
I0128 22:59:12.763171 97920 layer_factory.hpp:77] Creating layer pool5
I0128 22:59:12.763682 97920 net.cpp:100] Creating Layer pool5
I0128 22:59:12.764143 97920 net.cpp:434] pool5 <- conv5b
I0128 22:59:12.764559 97920 net.cpp:408] pool5 -> pool5
I0128 22:59:12.765419 97920 net.cpp:150] Setting up pool5
I0128 22:59:12.765875 97920 net.cpp:157] Top shape: 1 512 3 4 4 (24576)
I0128 22:59:12.766249 97920 net.cpp:165] Memory required for data: 584297476
I0128 22:59:12.766657 97920 layer_factory.hpp:77] Creating layer fc6-new
I0128 22:59:12.767074 97920 net.cpp:100] Creating Layer fc6-new
I0128 22:59:12.767412 97920 net.cpp:434] fc6-new <- pool5
I0128 22:59:12.767792 97920 net.cpp:408] fc6-new -> fc6-new
I0128 22:59:14.212864 97920 net.cpp:150] Setting up fc6-new
I0128 22:59:14.213618 97920 net.cpp:157] Top shape: 1 2048 (2048)
I0128 22:59:14.214331 97920 net.cpp:165] Memory required for data: 584305668
I0128 22:59:14.215085 97920 layer_factory.hpp:77] Creating layer relu6
I0128 22:59:14.215718 97920 net.cpp:100] Creating Layer relu6
I0128 22:59:14.216261 97920 net.cpp:434] relu6 <- fc6-new
I0128 22:59:14.216737 97920 net.cpp:395] relu6 -> fc6-new (in-place)
I0128 22:59:14.217697 97920 net.cpp:150] Setting up relu6
I0128 22:59:14.218303 97920 net.cpp:157] Top shape: 1 2048 (2048)
I0128 22:59:14.218714 97920 net.cpp:165] Memory required for data: 584313860
I0128 22:59:14.219234 97920 layer_factory.hpp:77] Creating layer drop6
I0128 22:59:14.219754 97920 net.cpp:100] Creating Layer drop6
I0128 22:59:14.220263 97920 net.cpp:434] drop6 <- fc6-new
I0128 22:59:14.220722 97920 net.cpp:395] drop6 -> fc6-new (in-place)
I0128 22:59:14.221261 97920 net.cpp:150] Setting up drop6
I0128 22:59:14.221668 97920 net.cpp:157] Top shape: 1 2048 (2048)
I0128 22:59:14.222116 97920 net.cpp:165] Memory required for data: 584322052
I0128 22:59:14.222522 97920 layer_factory.hpp:77] Creating layer fc7-new
I0128 22:59:14.222987 97920 net.cpp:100] Creating Layer fc7-new
I0128 22:59:14.223382 97920 net.cpp:434] fc7-new <- fc6-new
I0128 22:59:14.223753 97920 net.cpp:408] fc7-new -> fc7-new
I0128 22:59:14.342382 97920 net.cpp:150] Setting up fc7-new
I0128 22:59:14.343006 97920 net.cpp:157] Top shape: 1 2048 (2048)
I0128 22:59:14.343657 97920 net.cpp:165] Memory required for data: 584330244
I0128 22:59:14.344229 97920 layer_factory.hpp:77] Creating layer relu7
I0128 22:59:14.344789 97920 net.cpp:100] Creating Layer relu7
I0128 22:59:14.345307 97920 net.cpp:434] relu7 <- fc7-new
I0128 22:59:14.345836 97920 net.cpp:395] relu7 -> fc7-new (in-place)
I0128 22:59:14.346776 97920 net.cpp:150] Setting up relu7
I0128 22:59:14.347302 97920 net.cpp:157] Top shape: 1 2048 (2048)
I0128 22:59:14.347887 97920 net.cpp:165] Memory required for data: 584338436
I0128 22:59:14.348423 97920 layer_factory.hpp:77] Creating layer drop7
I0128 22:59:14.348891 97920 net.cpp:100] Creating Layer drop7
I0128 22:59:14.349437 97920 net.cpp:434] drop7 <- fc7-new
I0128 22:59:14.349910 97920 net.cpp:395] drop7 -> fc7-new (in-place)
I0128 22:59:14.350438 97920 net.cpp:150] Setting up drop7
I0128 22:59:14.350975 97920 net.cpp:157] Top shape: 1 2048 (2048)
I0128 22:59:14.351478 97920 net.cpp:165] Memory required for data: 584346628
I0128 22:59:14.351958 97920 layer_factory.hpp:77] Creating layer fc8-new
I0128 22:59:14.352447 97920 net.cpp:100] Creating Layer fc8-new
I0128 22:59:14.352880 97920 net.cpp:434] fc8-new <- fc7-new
I0128 22:59:14.353337 97920 net.cpp:408] fc8-new -> fc8-new
I0128 22:59:14.356395 97920 net.cpp:150] Setting up fc8-new
I0128 22:59:14.356899 97920 net.cpp:157] Top shape: 1 43 (43)
I0128 22:59:14.357403 97920 net.cpp:165] Memory required for data: 584346800
I0128 22:59:14.357900 97920 layer_factory.hpp:77] Creating layer fc8-new_fc8-new_0_split
I0128 22:59:14.358407 97920 net.cpp:100] Creating Layer fc8-new_fc8-new_0_split
I0128 22:59:14.358846 97920 net.cpp:434] fc8-new_fc8-new_0_split <- fc8-new
I0128 22:59:14.359266 97920 net.cpp:408] fc8-new_fc8-new_0_split -> fc8-new_fc8-new_0_split_0
I0128 22:59:14.359730 97920 net.cpp:408] fc8-new_fc8-new_0_split -> fc8-new_fc8-new_0_split_1
I0128 22:59:14.360144 97920 net.cpp:150] Setting up fc8-new_fc8-new_0_split
I0128 22:59:14.360581 97920 net.cpp:157] Top shape: 1 43 (43)
I0128 22:59:14.360950 97920 net.cpp:157] Top shape: 1 43 (43)
I0128 22:59:14.361261 97920 net.cpp:165] Memory required for data: 584347144
I0128 22:59:14.361644 97920 layer_factory.hpp:77] Creating layer prob
I0128 22:59:14.361955 97920 net.cpp:100] Creating Layer prob
I0128 22:59:14.362350 97920 net.cpp:434] prob <- fc8-new_fc8-new_0_split_0
I0128 22:59:14.362682 97920 net.cpp:408] prob -> prob
I0128 22:59:14.363929 97920 net.cpp:150] Setting up prob
I0128 22:59:14.364392 97920 net.cpp:157] Top shape: 1 43 (43)
I0128 22:59:14.364691 97920 net.cpp:165] Memory required for data: 584347316
I0128 22:59:14.365062 97920 layer_factory.hpp:77] Creating layer loss
I0128 22:59:14.365362 97920 net.cpp:100] Creating Layer loss
I0128 22:59:14.365676 97920 net.cpp:434] loss <- fc8-new_fc8-new_0_split_1
I0128 22:59:14.366117 97920 net.cpp:434] loss <- label
I0128 22:59:14.366399 97920 net.cpp:408] loss -> loss
…
