…
  type: "VideoData"
  top: "data"
  top: "label"
  include {
    phase: TEST
  }
  transform_param {
    mirror: false
    crop_size: 112
    mean_value: 128
    mean_value: 128
    mean_value: 128
  }
  video_data_param {
    source: "/data/sparks/share/asl/experiments/datasets/test/aligned_gctw_sample_test_reduced_fps_class/test_c01.txt"
    batch_size: 1
    shuffle: true
    new_length: 45
    new_height: 128
    new_width: 171
    root_folder: "/data/sparks/share/asl/experiments/datasets/test/aligned_gctw_sample_test_reduced_fps_class/01/"
  }
}
layer {
  name: "conv1a"
  type: "Convolution"
  bottom: "data"
  top: "conv1a"
  param {
    lr_mult: 1
    decay_mult: 1
  }
  param {
    lr_mult: 2
    decay_mult: 0
  }
  convolution_param {
    num_output: 64
    pad: 1
    pad: 1
    pad: 1
    kernel_size: 3
    kernel_size: 3
    kernel_size: 3
    weight_filler {
      type: "gaussian"
      std: 0.01
    }
    bias_filler {
      type: "constant"
      value: 0
    }
  }
}
layer {
  name: "relu1a"
  type: "ReLU"
  bottom: "conv1a"
  top: "conv1a"
}
layer {
  name: "pool1"
  type: "Pooling"
  bottom: "conv1a"
  top: "pool1"
  pooling_param {
    pool: MAX
    kernel_size: 1
    kernel_size: 2
    kernel_size: 2
    stride: 1
    stride: 2
    stride: 2
  }
}
layer {
  name: "conv2a"
  type: "Convolution"
  bottom: "pool1"
  top: "conv2a"
  param {
    lr_mult: 1
    decay_mult: 1
  }
  param {
    lr_mult: 2
    decay_mult: 0
  }
  convolution_param {
    num_output: 128
    pad: 1
    pad: 1
    pad: 1
    kernel_size: 3
    kernel_size: 3
    kernel_size: 3
    weight_filler {
      type: "gaussian"
      std: 0.01
    }
    bias_filler {
      type: "constant"
      value: 1
    }
  }
}
layer {
  name: "relu2a"
  type: "ReLU"
  bottom: "conv2a"
  top: "conv2a"
}
layer {
  name: "pool2"
  type: "Pooling"
  bottom: "conv2a"
  top: "pool2"
  pooling_param {
    pool: MAX
    kernel_size: 2
    kernel_size: 2
    kernel_size: 2
    stride: 2
    stride: 2
    stride: 2
  }
}
layer {
  name: "conv3a"
  type: "Convolution"
  bottom: "pool2"
  top: "conv3a"
  param {
    lr_mult: 1
    decay_mult: 1
  }
  param {
    lr_mult: 2
    decay_mult: 0
  }
  convolution_param {
    num_output: 256
    pad: 1
    pad: 1
    pad: 1
    kernel_size: 3
    kernel_size: 3
    kernel_size: 3
    weight_filler {
      type: "gaussian"
      std: 0.01
    }
    bias_filler {
      type: "constant"
      value: 1
    }
  }
}
layer {
  name: "relu3a"
  type: "ReLU"
  bottom: "conv3a"
  top: "conv3a"
}
layer {
  name: "conv3b"
  type: "Convolution"
  bottom: "conv3a"
  top: "conv3b"
  param {
    lr_mult: 1
    decay_mult: 1
  }
  param {
    lr_mult: 2
    decay_mult: 0
  }
  convolution_param {
    num_output: 256
    pad: 1
    pad: 1
    pad: 1
    kernel_size: 3
    kernel_size: 3
    kernel_size: 3
    weight_filler {
      type: "gaussian"
      std: 0.01
    }
    bias_filler {
      type: "constant"
      value: 1
    }
  }
}
layer {
  name: "relu3b"
  type: "ReLU"
  bottom: "conv3b"
  top: "conv3b"
}
layer {
  name: "pool3"
  type: "Pooling"
  bottom: "conv3b"
  top: "pool3"
  pooling_param {
    pool: MAX
    kernel_size: 2
    kernel_size: 2
    kernel_size: 2
    stride: 2
    stride: 2
    stride: 2
  }
}
layer {
  name: "conv4a"
  type: "Convolution"
  bottom: "pool3"
  top: "conv4a"
  param {
    lr_mult: 1
    decay_mult: 1
  }
  param {
    lr_mult: 2
    decay_mult: 0
  }
  convolution_param {
    num_output: 512
    pad: 1
    pad: 1
    pad: 1
    kernel_size: 3
    kernel_size: 3
    kernel_size: 3
    weight_filler {
      type: "gaussian"
      std: 0.01
    }
    bias_filler {
      type: "constant"
      value: 1
    }
  }
}
layer {
  name: "relu4a"
  type: "ReLU"
  bottom: "conv4a"
  top: "conv4a"
}
layer {
  name: "conv4b"
  type: "Convolution"
  bottom: "conv4a"
  top: "conv4b"
  param {
    lr_mult: 1
    decay_mult: 1
  }
  param {
    lr_mult: 2
    decay_mult: 0
  }
  convolution_param {
    num_output: 512
    pad: 1
    pad: 1
    pad: 1
    kernel_size: 3
    kernel_size: 3
    kernel_size: 3
    weight_filler {
      type: "gaussian"
      std: 0.01
    }
    bias_filler {
      type: "constant"
      value: 1
    }
  }
}
layer {
  name: "relu4b"
  type: "ReLU"
  bottom: "conv4b"
  top: "conv4b"
}
layer {
  name: "pool4"
  type: "Pooling"
  bottom: "conv4b"
  top: "pool4"
  pooling_param {
    pool: MAX
    kernel_size: 2
    kernel_size: 2
    kernel_size: 2
    stride: 2
    stride: 2
    stride: 2
  }
}
layer {
  name: "conv5a"
  type: "Convolution"
  bottom: "pool4"
  top: "conv5a"
  param {
    lr_mult: 1
    decay_mult: 1
  }
  param {
    lr_mult: 2
    decay_mult: 0
  }
  convolution_param {
    num_output: 512
    pad: 1
    pad: 1
    pad: 1
    kernel_size: 3
    kernel_size: 3
    kernel_size: 3
    weight_filler {
      type: "gaussian"
      std: 0.01
    }
    bias_filler {
      type: "constant"
      value: 1
    }
  }
}
layer {
  name: "relu5a"
  type: "ReLU"
  bottom: "conv5a"
  top: "conv5a"
}
layer {
  name: "conv5b"
  type: "Convolution"
  bottom: "conv5a"
  top: "conv5b"
  param {
    lr_mult: 1
    decay_mult: 1
  }
  param {
    lr_mult: 2
    decay_mult: 0
  }
  convolution_param {
    num_output: 512
    pad: 1
    pad: 1
    pad: 1
    kernel_size: 3
    kernel_size: 3
    kernel_size: 3
    weight_filler {
      type: "gaussian"
      std: 0.01
    }
    bias_filler {
      type: "constant"
      value: 1
    }
  }
}
layer {
  name: "relu5b"
  type: "ReLU"
  bottom: "conv5b"
  top: "conv5b"
}
layer {
  name: "pool5"
  type: "Pooling"
  bottom: "conv5b"
  top: "pool5"
  pooling_param {
    pool: MAX
    kernel_size: 2
    kernel_size: 2
    kernel_size: 2
    stride: 2
    stride: 2
    stride: 2
  }
}
layer {
  name: "fc6-new"
  type: "InnerProduct"
  bottom: "pool5"
  top: "fc6-new"
  param {
    lr_mult: 1
    decay_mult: 1
  }
  param {
    lr_mult: 2
    decay_mult: 0
  }
  inner_product_param {
    num_output: 2048
    weight_filler {
      type: "gaussian"
      std: 0.005
    }
    bias_filler {
      type: "constant"
      value: 1
    }
  }
}
layer {
  name: "relu6"
  type: "ReLU"
  bottom: "fc6-new"
  top: "fc6-new"
}
layer {
  name: "drop6"
  type: "Dropout"
  bottom: "fc6-new"
  top: "fc6-new"
  dropout_param {
    dropout_ratio: 0.5
  }
}
layer {
  name: "fc7-new"
  type: "InnerProduct"
  bottom: "fc6-new"
  top: "fc7-new"
  param {
    lr_mult: 1
    decay_mult: 1
  }
  param {
    lr_mult: 2
    decay_mult: 0
  }
  inner_product_param {
    num_output: 2048
    weight_filler {
      type: "gaussian"
      std: 0.005
    }
    bias_filler {
      type: "constant"
      value: 1
    }
  }
}
layer {
  name: "relu7"
  type: "ReLU"
  bottom: "fc7-new"
  top: "fc7-new"
}
layer {
  name: "drop7"
  type: "Dropout"
  bottom: "fc7-new"
  top: "fc7-new"
  dropout_param {
    dropout_ratio: 0.5
  }
}
layer {
  name: "fc8-new"
  type: "InnerProduct"
  bottom: "fc7-new"
  top: "fc8-new"
  param {
    lr_mult: 1
    decay_mult: 1
  }
  param {
    lr_mult: 2
    decay_mult: 0
  }
  inner_product_param {
    num_output: 43
    weight_filler {
      type: "gaussian"
      std: 0.01
    }
    bias_filler {
      type: "constant"
      value: 0
    }
  }
}
layer {
  name: "prob"
  type: "Softmax"
  bottom: "fc8-new"
  top: "prob"
  include {
    phase: TEST
  }
}
layer {
  name: "loss"
  type: "SoftmaxWithLoss"
  bottom: "fc8-new"
  bottom: "label"
  top: "loss"
}
I0128 23:04:34.706944 98301 layer_factory.hpp:77] Creating layer data
I0128 23:04:34.707573 98301 net.cpp:100] Creating Layer data
I0128 23:04:34.708149 98301 net.cpp:408] data -> data
I0128 23:04:34.708739 98301 net.cpp:408] data -> label
I0128 23:04:34.709237 98301 video_data_layer.cpp:39] Opening file /data/sparks/share/asl/experiments/datasets/test/aligned_gctw_sample_test_reduced_fps_class/test_c01.txt
I0128 23:04:34.726054 98301 video_data_layer.cpp:54] Shuffling data
I0128 23:04:34.726923 98301 video_data_layer.cpp:59] A total of 4 video chunks.
I0128 23:04:35.765496 98301 video_data_layer.cpp:100] output data size: 1,3,45,112,112
I0128 23:04:35.780897 98301 net.cpp:150] Setting up data
I0128 23:04:35.781472 98301 net.cpp:157] Top shape: 1 3 45 112 112 (1693440)
I0128 23:04:35.781951 98301 net.cpp:157] Top shape: 1 (1)
I0128 23:04:35.782450 98301 net.cpp:165] Memory required for data: 6773764
I0128 23:04:35.782924 98301 layer_factory.hpp:77] Creating layer conv1a
I0128 23:04:35.783324 98301 net.cpp:100] Creating Layer conv1a
I0128 23:04:35.783794 98301 net.cpp:434] conv1a <- data
I0128 23:04:35.784193 98301 net.cpp:408] conv1a -> conv1a
I0128 23:04:36.055757 98301 net.cpp:150] Setting up conv1a
I0128 23:04:36.056406 98301 net.cpp:157] Top shape: 1 64 45 112 112 (36126720)
I0128 23:04:36.056915 98301 net.cpp:165] Memory required for data: 151280644
I0128 23:04:36.057485 98301 layer_factory.hpp:77] Creating layer relu1a
I0128 23:04:36.057926 98301 net.cpp:100] Creating Layer relu1a
I0128 23:04:36.058468 98301 net.cpp:434] relu1a <- conv1a
I0128 23:04:36.058964 98301 net.cpp:395] relu1a -> conv1a (in-place)
I0128 23:04:36.059655 98301 net.cpp:150] Setting up relu1a
I0128 23:04:36.060040 98301 net.cpp:157] Top shape: 1 64 45 112 112 (36126720)
I0128 23:04:36.060415 98301 net.cpp:165] Memory required for data: 295787524
I0128 23:04:36.060775 98301 layer_factory.hpp:77] Creating layer pool1
I0128 23:04:36.061192 98301 net.cpp:100] Creating Layer pool1
I0128 23:04:36.061561 98301 net.cpp:434] pool1 <- conv1a
I0128 23:04:36.061944 98301 net.cpp:408] pool1 -> pool1
I0128 23:04:36.063271 98301 net.cpp:150] Setting up pool1
I0128 23:04:36.063680 98301 net.cpp:157] Top shape: 1 64 45 56 56 (9031680)
I0128 23:04:36.064024 98301 net.cpp:165] Memory required for data: 331914244
I0128 23:04:36.064342 98301 layer_factory.hpp:77] Creating layer conv2a
I0128 23:04:36.064652 98301 net.cpp:100] Creating Layer conv2a
I0128 23:04:36.064931 98301 net.cpp:434] conv2a <- pool1
I0128 23:04:36.065233 98301 net.cpp:408] conv2a -> conv2a
I0128 23:04:36.074254 98301 net.cpp:150] Setting up conv2a
I0128 23:04:36.074741 98301 net.cpp:157] Top shape: 1 128 45 56 56 (18063360)
I0128 23:04:36.075129 98301 net.cpp:165] Memory required for data: 404167684
I0128 23:04:36.075574 98301 layer_factory.hpp:77] Creating layer relu2a
I0128 23:04:36.075986 98301 net.cpp:100] Creating Layer relu2a
I0128 23:04:36.076417 98301 net.cpp:434] relu2a <- conv2a
I0128 23:04:36.076733 98301 net.cpp:395] relu2a -> conv2a (in-place)
I0128 23:04:36.077407 98301 net.cpp:150] Setting up relu2a
I0128 23:04:36.077733 98301 net.cpp:157] Top shape: 1 128 45 56 56 (18063360)
I0128 23:04:36.078040 98301 net.cpp:165] Memory required for data: 476421124
I0128 23:04:36.078410 98301 layer_factory.hpp:77] Creating layer pool2
I0128 23:04:36.078711 98301 net.cpp:100] Creating Layer pool2
I0128 23:04:36.079000 98301 net.cpp:434] pool2 <- conv2a
I0128 23:04:36.079303 98301 net.cpp:408] pool2 -> pool2
I0128 23:04:36.079740 98301 net.cpp:150] Setting up pool2
I0128 23:04:36.080008 98301 net.cpp:157] Top shape: 1 128 23 28 28 (2308096)
I0128 23:04:36.080407 98301 net.cpp:165] Memory required for data: 485653508
I0128 23:04:36.080703 98301 layer_factory.hpp:77] Creating layer conv3a
I0128 23:04:36.081032 98301 net.cpp:100] Creating Layer conv3a
I0128 23:04:36.081360 98301 net.cpp:434] conv3a <- pool2
I0128 23:04:36.081749 98301 net.cpp:408] conv3a -> conv3a
I0128 23:04:36.109330 98301 net.cpp:150] Setting up conv3a
I0128 23:04:36.109966 98301 net.cpp:157] Top shape: 1 256 23 28 28 (4616192)
I0128 23:04:36.110525 98301 net.cpp:165] Memory required for data: 504118276
I0128 23:04:36.110965 98301 layer_factory.hpp:77] Creating layer relu3a
I0128 23:04:36.111423 98301 net.cpp:100] Creating Layer relu3a
I0128 23:04:36.111920 98301 net.cpp:434] relu3a <- conv3a
I0128 23:04:36.112401 98301 net.cpp:395] relu3a -> conv3a (in-place)
I0128 23:04:36.113183 98301 net.cpp:150] Setting up relu3a
I0128 23:04:36.113530 98301 net.cpp:157] Top shape: 1 256 23 28 28 (4616192)
I0128 23:04:36.113977 98301 net.cpp:165] Memory required for data: 522583044
I0128 23:04:36.114385 98301 layer_factory.hpp:77] Creating layer conv3b
I0128 23:04:36.114759 98301 net.cpp:100] Creating Layer conv3b
I0128 23:04:36.115167 98301 net.cpp:434] conv3b <- conv3a
I0128 23:04:36.115592 98301 net.cpp:408] conv3b -> conv3b
I0128 23:04:36.167399 98301 net.cpp:150] Setting up conv3b
I0128 23:04:36.168151 98301 net.cpp:157] Top shape: 1 256 23 28 28 (4616192)
I0128 23:04:36.168639 98301 net.cpp:165] Memory required for data: 541047812
I0128 23:04:36.169097 98301 layer_factory.hpp:77] Creating layer relu3b
I0128 23:04:36.169590 98301 net.cpp:100] Creating Layer relu3b
I0128 23:04:36.170050 98301 net.cpp:434] relu3b <- conv3b
I0128 23:04:36.170511 98301 net.cpp:395] relu3b -> conv3b (in-place)
I0128 23:04:36.171216 98301 net.cpp:150] Setting up relu3b
I0128 23:04:36.171633 98301 net.cpp:157] Top shape: 1 256 23 28 28 (4616192)
I0128 23:04:36.172040 98301 net.cpp:165] Memory required for data: 559512580
I0128 23:04:36.172459 98301 layer_factory.hpp:77] Creating layer pool3
I0128 23:04:36.172890 98301 net.cpp:100] Creating Layer pool3
I0128 23:04:36.173211 98301 net.cpp:434] pool3 <- conv3b
I0128 23:04:36.173509 98301 net.cpp:408] pool3 -> pool3
I0128 23:04:36.174594 98301 net.cpp:150] Setting up pool3
I0128 23:04:36.174938 98301 net.cpp:157] Top shape: 1 256 12 14 14 (602112)
I0128 23:04:36.175384 98301 net.cpp:165] Memory required for data: 561921028
I0128 23:04:36.175720 98301 layer_factory.hpp:77] Creating layer conv4a
I0128 23:04:36.176069 98301 net.cpp:100] Creating Layer conv4a
I0128 23:04:36.176391 98301 net.cpp:434] conv4a <- pool3
I0128 23:04:36.176692 98301 net.cpp:408] conv4a -> conv4a
I0128 23:04:36.280151 98301 net.cpp:150] Setting up conv4a
I0128 23:04:36.280812 98301 net.cpp:157] Top shape: 1 512 12 14 14 (1204224)
I0128 23:04:36.281462 98301 net.cpp:165] Memory required for data: 566737924
I0128 23:04:36.281884 98301 layer_factory.hpp:77] Creating layer relu4a
I0128 23:04:36.282371 98301 net.cpp:100] Creating Layer relu4a
I0128 23:04:36.282865 98301 net.cpp:434] relu4a <- conv4a
I0128 23:04:36.283370 98301 net.cpp:395] relu4a -> conv4a (in-place)
I0128 23:04:36.283970 98301 net.cpp:150] Setting up relu4a
I0128 23:04:36.284394 98301 net.cpp:157] Top shape: 1 512 12 14 14 (1204224)
I0128 23:04:36.284765 98301 net.cpp:165] Memory required for data: 571554820
I0128 23:04:36.285282 98301 layer_factory.hpp:77] Creating layer conv4b
I0128 23:04:36.285872 98301 net.cpp:100] Creating Layer conv4b
I0128 23:04:36.286450 98301 net.cpp:434] conv4b <- conv4a
I0128 23:04:36.286938 98301 net.cpp:408] conv4b -> conv4b
I0128 23:04:36.488987 98301 net.cpp:150] Setting up conv4b
I0128 23:04:36.489558 98301 net.cpp:157] Top shape: 1 512 12 14 14 (1204224)
I0128 23:04:36.490126 98301 net.cpp:165] Memory required for data: 576371716
I0128 23:04:36.490689 98301 layer_factory.hpp:77] Creating layer relu4b
I0128 23:04:36.491183 98301 net.cpp:100] Creating Layer relu4b
I0128 23:04:36.491645 98301 net.cpp:434] relu4b <- conv4b
I0128 23:04:36.492038 98301 net.cpp:395] relu4b -> conv4b (in-place)
I0128 23:04:36.492569 98301 net.cpp:150] Setting up relu4b
I0128 23:04:36.492992 98301 net.cpp:157] Top shape: 1 512 12 14 14 (1204224)
I0128 23:04:36.493409 98301 net.cpp:165] Memory required for data: 581188612
I0128 23:04:36.493719 98301 layer_factory.hpp:77] Creating layer pool4
I0128 23:04:36.494057 98301 net.cpp:100] Creating Layer pool4
I0128 23:04:36.494469 98301 net.cpp:434] pool4 <- conv4b
I0128 23:04:36.494863 98301 net.cpp:408] pool4 -> pool4
I0128 23:04:36.495369 98301 net.cpp:150] Setting up pool4
I0128 23:04:36.495779 98301 net.cpp:157] Top shape: 1 512 6 7 7 (150528)
I0128 23:04:36.496165 98301 net.cpp:165] Memory required for data: 581790724
I0128 23:04:36.496512 98301 layer_factory.hpp:77] Creating layer conv5a
I0128 23:04:36.496840 98301 net.cpp:100] Creating Layer conv5a
I0128 23:04:36.497162 98301 net.cpp:434] conv5a <- pool4
I0128 23:04:36.497448 98301 net.cpp:408] conv5a -> conv5a
I0128 23:04:36.699082 98301 net.cpp:150] Setting up conv5a
I0128 23:04:36.699774 98301 net.cpp:157] Top shape: 1 512 6 7 7 (150528)
I0128 23:04:36.700316 98301 net.cpp:165] Memory required for data: 582392836
I0128 23:04:36.700884 98301 layer_factory.hpp:77] Creating layer relu5a
I0128 23:04:36.701436 98301 net.cpp:100] Creating Layer relu5a
I0128 23:04:36.701910 98301 net.cpp:434] relu5a <- conv5a
I0128 23:04:36.702342 98301 net.cpp:395] relu5a -> conv5a (in-place)
I0128 23:04:36.703112 98301 net.cpp:150] Setting up relu5a
I0128 23:04:36.703461 98301 net.cpp:157] Top shape: 1 512 6 7 7 (150528)
I0128 23:04:36.703775 98301 net.cpp:165] Memory required for data: 582994948
I0128 23:04:36.704077 98301 layer_factory.hpp:77] Creating layer conv5b
I0128 23:04:36.704409 98301 net.cpp:100] Creating Layer conv5b
I0128 23:04:36.704710 98301 net.cpp:434] conv5b <- conv5a
I0128 23:04:36.705054 98301 net.cpp:408] conv5b -> conv5b
I0128 23:04:36.906116 98301 net.cpp:150] Setting up conv5b
I0128 23:04:36.906770 98301 net.cpp:157] Top shape: 1 512 6 7 7 (150528)
I0128 23:04:36.907419 98301 net.cpp:165] Memory required for data: 583597060
I0128 23:04:36.908008 98301 layer_factory.hpp:77] Creating layer relu5b
I0128 23:04:36.908574 98301 net.cpp:100] Creating Layer relu5b
I0128 23:04:36.909123 98301 net.cpp:434] relu5b <- conv5b
I0128 23:04:36.909657 98301 net.cpp:395] relu5b -> conv5b (in-place)
I0128 23:04:36.910887 98301 net.cpp:150] Setting up relu5b
I0128 23:04:36.911468 98301 net.cpp:157] Top shape: 1 512 6 7 7 (150528)
I0128 23:04:36.911996 98301 net.cpp:165] Memory required for data: 584199172
I0128 23:04:36.912482 98301 layer_factory.hpp:77] Creating layer pool5
I0128 23:04:36.913003 98301 net.cpp:100] Creating Layer pool5
I0128 23:04:36.913430 98301 net.cpp:434] pool5 <- conv5b
I0128 23:04:36.913882 98301 net.cpp:408] pool5 -> pool5
I0128 23:04:36.914739 98301 net.cpp:150] Setting up pool5
I0128 23:04:36.915218 98301 net.cpp:157] Top shape: 1 512 3 4 4 (24576)
I0128 23:04:36.915653 98301 net.cpp:165] Memory required for data: 584297476
I0128 23:04:36.916040 98301 layer_factory.hpp:77] Creating layer fc6-new
I0128 23:04:36.916507 98301 net.cpp:100] Creating Layer fc6-new
I0128 23:04:36.916848 98301 net.cpp:434] fc6-new <- pool5
I0128 23:04:36.917194 98301 net.cpp:408] fc6-new -> fc6-new
I0128 23:04:38.323233 98301 net.cpp:150] Setting up fc6-new
I0128 23:04:38.323913 98301 net.cpp:157] Top shape: 1 2048 (2048)
I0128 23:04:38.324506 98301 net.cpp:165] Memory required for data: 584305668
I0128 23:04:38.325001 98301 layer_factory.hpp:77] Creating layer relu6
I0128 23:04:38.325515 98301 net.cpp:100] Creating Layer relu6
I0128 23:04:38.326122 98301 net.cpp:434] relu6 <- fc6-new
I0128 23:04:38.326601 98301 net.cpp:395] relu6 -> fc6-new (in-place)
I0128 23:04:38.327499 98301 net.cpp:150] Setting up relu6
I0128 23:04:38.328009 98301 net.cpp:157] Top shape: 1 2048 (2048)
I0128 23:04:38.328451 98301 net.cpp:165] Memory required for data: 584313860
I0128 23:04:38.328881 98301 layer_factory.hpp:77] Creating layer drop6
I0128 23:04:38.329381 98301 net.cpp:100] Creating Layer drop6
I0128 23:04:38.329733 98301 net.cpp:434] drop6 <- fc6-new
I0128 23:04:38.330103 98301 net.cpp:395] drop6 -> fc6-new (in-place)
I0128 23:04:38.330577 98301 net.cpp:150] Setting up drop6
I0128 23:04:38.330955 98301 net.cpp:157] Top shape: 1 2048 (2048)
I0128 23:04:38.331239 98301 net.cpp:165] Memory required for data: 584322052
I0128 23:04:38.331625 98301 layer_factory.hpp:77] Creating layer fc7-new
I0128 23:04:38.331956 98301 net.cpp:100] Creating Layer fc7-new
I0128 23:04:38.332283 98301 net.cpp:434] fc7-new <- fc6-new
I0128 23:04:38.332607 98301 net.cpp:408] fc7-new -> fc7-new
I0128 23:04:38.451038 98301 net.cpp:150] Setting up fc7-new
I0128 23:04:38.451617 98301 net.cpp:157] Top shape: 1 2048 (2048)
I0128 23:04:38.452067 98301 net.cpp:165] Memory required for data: 584330244
I0128 23:04:38.452508 98301 layer_factory.hpp:77] Creating layer relu7
I0128 23:04:38.453068 98301 net.cpp:100] Creating Layer relu7
I0128 23:04:38.453558 98301 net.cpp:434] relu7 <- fc7-new
I0128 23:04:38.454102 98301 net.cpp:395] relu7 -> fc7-new (in-place)
I0128 23:04:38.454779 98301 net.cpp:150] Setting up relu7
I0128 23:04:38.455293 98301 net.cpp:157] Top shape: 1 2048 (2048)
I0128 23:04:38.455747 98301 net.cpp:165] Memory required for data: 584338436
I0128 23:04:38.456203 98301 layer_factory.hpp:77] Creating layer drop7
I0128 23:04:38.456603 98301 net.cpp:100] Creating Layer drop7
I0128 23:04:38.456986 98301 net.cpp:434] drop7 <- fc7-new
I0128 23:04:38.457410 98301 net.cpp:395] drop7 -> fc7-new (in-place)
I0128 23:04:38.457890 98301 net.cpp:150] Setting up drop7
I0128 23:04:38.458312 98301 net.cpp:157] Top shape: 1 2048 (2048)
I0128 23:04:38.458731 98301 net.cpp:165] Memory required for data: 584346628
I0128 23:04:38.459261 98301 layer_factory.hpp:77] Creating layer fc8-new
I0128 23:04:38.459712 98301 net.cpp:100] Creating Layer fc8-new
I0128 23:04:38.460064 98301 net.cpp:434] fc8-new <- fc7-new
I0128 23:04:38.460422 98301 net.cpp:408] fc8-new -> fc8-new
I0128 23:04:38.463284 98301 net.cpp:150] Setting up fc8-new
I0128 23:04:38.463718 98301 net.cpp:157] Top shape: 1 43 (43)
I0128 23:04:38.464064 98301 net.cpp:165] Memory required for data: 584346800
I0128 23:04:38.464417 98301 layer_factory.hpp:77] Creating layer fc8-new_fc8-new_0_split
I0128 23:04:38.464758 98301 net.cpp:100] Creating Layer fc8-new_fc8-new_0_split
I0128 23:04:38.465045 98301 net.cpp:434] fc8-new_fc8-new_0_split <- fc8-new
I0128 23:04:38.465323 98301 net.cpp:408] fc8-new_fc8-new_0_split -> fc8-new_fc8-new_0_split_0
I0128 23:04:38.465608 98301 net.cpp:408] fc8-new_fc8-new_0_split -> fc8-new_fc8-new_0_split_1
I0128 23:04:38.466017 98301 net.cpp:150] Setting up fc8-new_fc8-new_0_split
I0128 23:04:38.466264 98301 net.cpp:157] Top shape: 1 43 (43)
I0128 23:04:38.466490 98301 net.cpp:157] Top shape: 1 43 (43)
I0128 23:04:38.466693 98301 net.cpp:165] Memory required for data: 584347144
I0128 23:04:38.466891 98301 layer_factory.hpp:77] Creating layer prob
I0128 23:04:38.467084 98301 net.cpp:100] Creating Layer prob
I0128 23:04:38.467281 98301 net.cpp:434] prob <- fc8-new_fc8-new_0_split_0
I0128 23:04:38.467504 98301 net.cpp:408] prob -> prob
I0128 23:04:38.468706 98301 net.cpp:150] Setting up prob
I0128 23:04:38.469012 98301 net.cpp:157] Top shape: 1 43 (43)
I0128 23:04:38.469367 98301 net.cpp:165] Memory required for data: 584347316
I0128 23:04:38.469671 98301 layer_factory.hpp:77] Creating layer loss
I0128 23:04:38.469956 98301 net.cpp:100] Creating Layer loss
I0128 23:04:38.470211 98301 net.cpp:434] loss <- fc8-new_fc8-new_0_split_1
I0128 23:04:38.470456 98301 net.cpp:434] loss <- label
I0128 23:04:38.470702 98301 net.cpp:408] loss -> loss
…
