…
  type: "VideoData"
  top: "data"
  top: "label"
  include {
    phase: TEST
  }
  transform_param {
    mirror: false
    crop_size: 112
    mean_value: 128
    mean_value: 128
    mean_value: 128
  }
  video_data_param {
    source: "/data/sparks/share/asl/experiments/datasets/test/aligned_gctw_sample_test_reduced_fps_class/test_c42.txt"
    batch_size: 1
    shuffle: true
    new_length: 45
    new_height: 128
    new_width: 171
    root_folder: "/data/sparks/share/asl/experiments/datasets/test/aligned_gctw_sample_test_reduced_fps_class/42/"
  }
}
layer {
  name: "conv1a"
  type: "Convolution"
  bottom: "data"
  top: "conv1a"
  param {
    lr_mult: 1
    decay_mult: 1
  }
  param {
    lr_mult: 2
    decay_mult: 0
  }
  convolution_param {
    num_output: 64
    pad: 1
    pad: 1
    pad: 1
    kernel_size: 3
    kernel_size: 3
    kernel_size: 3
    weight_filler {
      type: "gaussian"
      std: 0.01
    }
    bias_filler {
      type: "constant"
      value: 0
    }
  }
}
layer {
  name: "relu1a"
  type: "ReLU"
  bottom: "conv1a"
  top: "conv1a"
}
layer {
  name: "pool1"
  type: "Pooling"
  bottom: "conv1a"
  top: "pool1"
  pooling_param {
    pool: MAX
    kernel_size: 1
    kernel_size: 2
    kernel_size: 2
    stride: 1
    stride: 2
    stride: 2
  }
}
layer {
  name: "conv2a"
  type: "Convolution"
  bottom: "pool1"
  top: "conv2a"
  param {
    lr_mult: 1
    decay_mult: 1
  }
  param {
    lr_mult: 2
    decay_mult: 0
  }
  convolution_param {
    num_output: 128
    pad: 1
    pad: 1
    pad: 1
    kernel_size: 3
    kernel_size: 3
    kernel_size: 3
    weight_filler {
      type: "gaussian"
      std: 0.01
    }
    bias_filler {
      type: "constant"
      value: 1
    }
  }
}
layer {
  name: "relu2a"
  type: "ReLU"
  bottom: "conv2a"
  top: "conv2a"
}
layer {
  name: "pool2"
  type: "Pooling"
  bottom: "conv2a"
  top: "pool2"
  pooling_param {
    pool: MAX
    kernel_size: 2
    kernel_size: 2
    kernel_size: 2
    stride: 2
    stride: 2
    stride: 2
  }
}
layer {
  name: "conv3a"
  type: "Convolution"
  bottom: "pool2"
  top: "conv3a"
  param {
    lr_mult: 1
    decay_mult: 1
  }
  param {
    lr_mult: 2
    decay_mult: 0
  }
  convolution_param {
    num_output: 256
    pad: 1
    pad: 1
    pad: 1
    kernel_size: 3
    kernel_size: 3
    kernel_size: 3
    weight_filler {
      type: "gaussian"
      std: 0.01
    }
    bias_filler {
      type: "constant"
      value: 1
    }
  }
}
layer {
  name: "relu3a"
  type: "ReLU"
  bottom: "conv3a"
  top: "conv3a"
}
layer {
  name: "conv3b"
  type: "Convolution"
  bottom: "conv3a"
  top: "conv3b"
  param {
    lr_mult: 1
    decay_mult: 1
  }
  param {
    lr_mult: 2
    decay_mult: 0
  }
  convolution_param {
    num_output: 256
    pad: 1
    pad: 1
    pad: 1
    kernel_size: 3
    kernel_size: 3
    kernel_size: 3
    weight_filler {
      type: "gaussian"
      std: 0.01
    }
    bias_filler {
      type: "constant"
      value: 1
    }
  }
}
layer {
  name: "relu3b"
  type: "ReLU"
  bottom: "conv3b"
  top: "conv3b"
}
layer {
  name: "pool3"
  type: "Pooling"
  bottom: "conv3b"
  top: "pool3"
  pooling_param {
    pool: MAX
    kernel_size: 2
    kernel_size: 2
    kernel_size: 2
    stride: 2
    stride: 2
    stride: 2
  }
}
layer {
  name: "conv4a"
  type: "Convolution"
  bottom: "pool3"
  top: "conv4a"
  param {
    lr_mult: 1
    decay_mult: 1
  }
  param {
    lr_mult: 2
    decay_mult: 0
  }
  convolution_param {
    num_output: 512
    pad: 1
    pad: 1
    pad: 1
    kernel_size: 3
    kernel_size: 3
    kernel_size: 3
    weight_filler {
      type: "gaussian"
      std: 0.01
    }
    bias_filler {
      type: "constant"
      value: 1
    }
  }
}
layer {
  name: "relu4a"
  type: "ReLU"
  bottom: "conv4a"
  top: "conv4a"
}
layer {
  name: "conv4b"
  type: "Convolution"
  bottom: "conv4a"
  top: "conv4b"
  param {
    lr_mult: 1
    decay_mult: 1
  }
  param {
    lr_mult: 2
    decay_mult: 0
  }
  convolution_param {
    num_output: 512
    pad: 1
    pad: 1
    pad: 1
    kernel_size: 3
    kernel_size: 3
    kernel_size: 3
    weight_filler {
      type: "gaussian"
      std: 0.01
    }
    bias_filler {
      type: "constant"
      value: 1
    }
  }
}
layer {
  name: "relu4b"
  type: "ReLU"
  bottom: "conv4b"
  top: "conv4b"
}
layer {
  name: "pool4"
  type: "Pooling"
  bottom: "conv4b"
  top: "pool4"
  pooling_param {
    pool: MAX
    kernel_size: 2
    kernel_size: 2
    kernel_size: 2
    stride: 2
    stride: 2
    stride: 2
  }
}
layer {
  name: "conv5a"
  type: "Convolution"
  bottom: "pool4"
  top: "conv5a"
  param {
    lr_mult: 1
    decay_mult: 1
  }
  param {
    lr_mult: 2
    decay_mult: 0
  }
  convolution_param {
    num_output: 512
    pad: 1
    pad: 1
    pad: 1
    kernel_size: 3
    kernel_size: 3
    kernel_size: 3
    weight_filler {
      type: "gaussian"
      std: 0.01
    }
    bias_filler {
      type: "constant"
      value: 1
    }
  }
}
layer {
  name: "relu5a"
  type: "ReLU"
  bottom: "conv5a"
  top: "conv5a"
}
layer {
  name: "conv5b"
  type: "Convolution"
  bottom: "conv5a"
  top: "conv5b"
  param {
    lr_mult: 1
    decay_mult: 1
  }
  param {
    lr_mult: 2
    decay_mult: 0
  }
  convolution_param {
    num_output: 512
    pad: 1
    pad: 1
    pad: 1
    kernel_size: 3
    kernel_size: 3
    kernel_size: 3
    weight_filler {
      type: "gaussian"
      std: 0.01
    }
    bias_filler {
      type: "constant"
      value: 1
    }
  }
}
layer {
  name: "relu5b"
  type: "ReLU"
  bottom: "conv5b"
  top: "conv5b"
}
layer {
  name: "pool5"
  type: "Pooling"
  bottom: "conv5b"
  top: "pool5"
  pooling_param {
    pool: MAX
    kernel_size: 2
    kernel_size: 2
    kernel_size: 2
    stride: 2
    stride: 2
    stride: 2
  }
}
layer {
  name: "fc6-new"
  type: "InnerProduct"
  bottom: "pool5"
  top: "fc6-new"
  param {
    lr_mult: 1
    decay_mult: 1
  }
  param {
    lr_mult: 2
    decay_mult: 0
  }
  inner_product_param {
    num_output: 2048
    weight_filler {
      type: "gaussian"
      std: 0.005
    }
    bias_filler {
      type: "constant"
      value: 1
    }
  }
}
layer {
  name: "relu6"
  type: "ReLU"
  bottom: "fc6-new"
  top: "fc6-new"
}
layer {
  name: "drop6"
  type: "Dropout"
  bottom: "fc6-new"
  top: "fc6-new"
  dropout_param {
    dropout_ratio: 0.5
  }
}
layer {
  name: "fc7-new"
  type: "InnerProduct"
  bottom: "fc6-new"
  top: "fc7-new"
  param {
    lr_mult: 1
    decay_mult: 1
  }
  param {
    lr_mult: 2
    decay_mult: 0
  }
  inner_product_param {
    num_output: 2048
    weight_filler {
      type: "gaussian"
      std: 0.005
    }
    bias_filler {
      type: "constant"
      value: 1
    }
  }
}
layer {
  name: "relu7"
  type: "ReLU"
  bottom: "fc7-new"
  top: "fc7-new"
}
layer {
  name: "drop7"
  type: "Dropout"
  bottom: "fc7-new"
  top: "fc7-new"
  dropout_param {
    dropout_ratio: 0.5
  }
}
layer {
  name: "fc8-new"
  type: "InnerProduct"
  bottom: "fc7-new"
  top: "fc8-new"
  param {
    lr_mult: 1
    decay_mult: 1
  }
  param {
    lr_mult: 2
    decay_mult: 0
  }
  inner_product_param {
    num_output: 43
    weight_filler {
      type: "gaussian"
      std: 0.01
    }
    bias_filler {
      type: "constant"
      value: 0
    }
  }
}
layer {
  name: "prob"
  type: "Softmax"
  bottom: "fc8-new"
  top: "prob"
  include {
    phase: TEST
  }
}
layer {
  name: "loss"
  type: "SoftmaxWithLoss"
  bottom: "fc8-new"
  bottom: "label"
  top: "loss"
}
I0128 22:38:29.428783 97678 layer_factory.hpp:77] Creating layer data
I0128 22:38:29.429415 97678 net.cpp:100] Creating Layer data
I0128 22:38:29.429997 97678 net.cpp:408] data -> data
I0128 22:38:29.430603 97678 net.cpp:408] data -> label
I0128 22:38:29.431210 97678 video_data_layer.cpp:39] Opening file /data/sparks/share/asl/experiments/datasets/test/aligned_gctw_sample_test_reduced_fps_class/test_c42.txt
I0128 22:38:29.451902 97678 video_data_layer.cpp:54] Shuffling data
I0128 22:38:29.452917 97678 video_data_layer.cpp:59] A total of 6 video chunks.
I0128 22:38:30.285194 97678 video_data_layer.cpp:100] output data size: 1,3,45,112,112
I0128 22:38:30.299731 97678 net.cpp:150] Setting up data
I0128 22:38:30.300328 97678 net.cpp:157] Top shape: 1 3 45 112 112 (1693440)
I0128 22:38:30.300806 97678 net.cpp:157] Top shape: 1 (1)
I0128 22:38:30.301339 97678 net.cpp:165] Memory required for data: 6773764
I0128 22:38:30.301843 97678 layer_factory.hpp:77] Creating layer conv1a
I0128 22:38:30.302392 97678 net.cpp:100] Creating Layer conv1a
I0128 22:38:30.302803 97678 net.cpp:434] conv1a <- data
I0128 22:38:30.303247 97678 net.cpp:408] conv1a -> conv1a
I0128 22:38:30.795418 97678 net.cpp:150] Setting up conv1a
I0128 22:38:30.796075 97678 net.cpp:157] Top shape: 1 64 45 112 112 (36126720)
I0128 22:38:30.796635 97678 net.cpp:165] Memory required for data: 151280644
I0128 22:38:30.797176 97678 layer_factory.hpp:77] Creating layer relu1a
I0128 22:38:30.797721 97678 net.cpp:100] Creating Layer relu1a
I0128 22:38:30.798180 97678 net.cpp:434] relu1a <- conv1a
I0128 22:38:30.798651 97678 net.cpp:395] relu1a -> conv1a (in-place)
I0128 22:38:30.799381 97678 net.cpp:150] Setting up relu1a
I0128 22:38:30.799784 97678 net.cpp:157] Top shape: 1 64 45 112 112 (36126720)
I0128 22:38:30.800176 97678 net.cpp:165] Memory required for data: 295787524
I0128 22:38:30.800513 97678 layer_factory.hpp:77] Creating layer pool1
I0128 22:38:30.800937 97678 net.cpp:100] Creating Layer pool1
I0128 22:38:30.801265 97678 net.cpp:434] pool1 <- conv1a
I0128 22:38:30.801604 97678 net.cpp:408] pool1 -> pool1
I0128 22:38:30.802700 97678 net.cpp:150] Setting up pool1
I0128 22:38:30.803067 97678 net.cpp:157] Top shape: 1 64 45 56 56 (9031680)
I0128 22:38:30.803345 97678 net.cpp:165] Memory required for data: 331914244
I0128 22:38:30.803721 97678 layer_factory.hpp:77] Creating layer conv2a
I0128 22:38:30.804050 97678 net.cpp:100] Creating Layer conv2a
I0128 22:38:30.804378 97678 net.cpp:434] conv2a <- pool1
I0128 22:38:30.804824 97678 net.cpp:408] conv2a -> conv2a
I0128 22:38:30.813891 97678 net.cpp:150] Setting up conv2a
I0128 22:38:30.814332 97678 net.cpp:157] Top shape: 1 128 45 56 56 (18063360)
I0128 22:38:30.814769 97678 net.cpp:165] Memory required for data: 404167684
I0128 22:38:30.815132 97678 layer_factory.hpp:77] Creating layer relu2a
I0128 22:38:30.815528 97678 net.cpp:100] Creating Layer relu2a
I0128 22:38:30.815886 97678 net.cpp:434] relu2a <- conv2a
I0128 22:38:30.816308 97678 net.cpp:395] relu2a -> conv2a (in-place)
I0128 22:38:30.816776 97678 net.cpp:150] Setting up relu2a
I0128 22:38:30.817114 97678 net.cpp:157] Top shape: 1 128 45 56 56 (18063360)
I0128 22:38:30.817418 97678 net.cpp:165] Memory required for data: 476421124
I0128 22:38:30.817765 97678 layer_factory.hpp:77] Creating layer pool2
I0128 22:38:30.818089 97678 net.cpp:100] Creating Layer pool2
I0128 22:38:30.818440 97678 net.cpp:434] pool2 <- conv2a
I0128 22:38:30.818691 97678 net.cpp:408] pool2 -> pool2
I0128 22:38:30.819164 97678 net.cpp:150] Setting up pool2
I0128 22:38:30.819420 97678 net.cpp:157] Top shape: 1 128 23 28 28 (2308096)
I0128 22:38:30.819712 97678 net.cpp:165] Memory required for data: 485653508
I0128 22:38:30.819972 97678 layer_factory.hpp:77] Creating layer conv3a
I0128 22:38:30.820250 97678 net.cpp:100] Creating Layer conv3a
I0128 22:38:30.820484 97678 net.cpp:434] conv3a <- pool2
I0128 22:38:30.820770 97678 net.cpp:408] conv3a -> conv3a
I0128 22:38:30.848438 97678 net.cpp:150] Setting up conv3a
I0128 22:38:30.849076 97678 net.cpp:157] Top shape: 1 256 23 28 28 (4616192)
I0128 22:38:30.849725 97678 net.cpp:165] Memory required for data: 504118276
I0128 22:38:30.850296 97678 layer_factory.hpp:77] Creating layer relu3a
I0128 22:38:30.850771 97678 net.cpp:100] Creating Layer relu3a
I0128 22:38:30.851267 97678 net.cpp:434] relu3a <- conv3a
I0128 22:38:30.851711 97678 net.cpp:395] relu3a -> conv3a (in-place)
I0128 22:38:30.852471 97678 net.cpp:150] Setting up relu3a
I0128 22:38:30.852921 97678 net.cpp:157] Top shape: 1 256 23 28 28 (4616192)
I0128 22:38:30.853364 97678 net.cpp:165] Memory required for data: 522583044
I0128 22:38:30.853842 97678 layer_factory.hpp:77] Creating layer conv3b
I0128 22:38:30.854259 97678 net.cpp:100] Creating Layer conv3b
I0128 22:38:30.854672 97678 net.cpp:434] conv3b <- conv3a
I0128 22:38:30.855146 97678 net.cpp:408] conv3b -> conv3b
I0128 22:38:30.907515 97678 net.cpp:150] Setting up conv3b
I0128 22:38:30.908056 97678 net.cpp:157] Top shape: 1 256 23 28 28 (4616192)
I0128 22:38:30.908715 97678 net.cpp:165] Memory required for data: 541047812
I0128 22:38:30.909263 97678 layer_factory.hpp:77] Creating layer relu3b
I0128 22:38:30.909777 97678 net.cpp:100] Creating Layer relu3b
I0128 22:38:30.910306 97678 net.cpp:434] relu3b <- conv3b
I0128 22:38:30.910828 97678 net.cpp:395] relu3b -> conv3b (in-place)
I0128 22:38:30.911605 97678 net.cpp:150] Setting up relu3b
I0128 22:38:30.912068 97678 net.cpp:157] Top shape: 1 256 23 28 28 (4616192)
I0128 22:38:30.912456 97678 net.cpp:165] Memory required for data: 559512580
I0128 22:38:30.912856 97678 layer_factory.hpp:77] Creating layer pool3
I0128 22:38:30.913378 97678 net.cpp:100] Creating Layer pool3
I0128 22:38:30.913784 97678 net.cpp:434] pool3 <- conv3b
I0128 22:38:30.914111 97678 net.cpp:408] pool3 -> pool3
I0128 22:38:30.915395 97678 net.cpp:150] Setting up pool3
I0128 22:38:30.915752 97678 net.cpp:157] Top shape: 1 256 12 14 14 (602112)
I0128 22:38:30.916147 97678 net.cpp:165] Memory required for data: 561921028
I0128 22:38:30.916522 97678 layer_factory.hpp:77] Creating layer conv4a
I0128 22:38:30.916908 97678 net.cpp:100] Creating Layer conv4a
I0128 22:38:30.917285 97678 net.cpp:434] conv4a <- pool3
I0128 22:38:30.917675 97678 net.cpp:408] conv4a -> conv4a
I0128 22:38:31.023452 97678 net.cpp:150] Setting up conv4a
I0128 22:38:31.024058 97678 net.cpp:157] Top shape: 1 512 12 14 14 (1204224)
I0128 22:38:31.024757 97678 net.cpp:165] Memory required for data: 566737924
I0128 22:38:31.025327 97678 layer_factory.hpp:77] Creating layer relu4a
I0128 22:38:31.025861 97678 net.cpp:100] Creating Layer relu4a
I0128 22:38:31.026458 97678 net.cpp:434] relu4a <- conv4a
I0128 22:38:31.027034 97678 net.cpp:395] relu4a -> conv4a (in-place)
I0128 22:38:31.027654 97678 net.cpp:150] Setting up relu4a
I0128 22:38:31.028097 97678 net.cpp:157] Top shape: 1 512 12 14 14 (1204224)
I0128 22:38:31.028530 97678 net.cpp:165] Memory required for data: 571554820
I0128 22:38:31.028990 97678 layer_factory.hpp:77] Creating layer conv4b
I0128 22:38:31.029459 97678 net.cpp:100] Creating Layer conv4b
I0128 22:38:31.029901 97678 net.cpp:434] conv4b <- conv4a
I0128 22:38:31.030303 97678 net.cpp:408] conv4b -> conv4b
I0128 22:38:31.240656 97678 net.cpp:150] Setting up conv4b
I0128 22:38:31.241345 97678 net.cpp:157] Top shape: 1 512 12 14 14 (1204224)
I0128 22:38:31.241858 97678 net.cpp:165] Memory required for data: 576371716
I0128 22:38:31.242291 97678 layer_factory.hpp:77] Creating layer relu4b
I0128 22:38:31.242755 97678 net.cpp:100] Creating Layer relu4b
I0128 22:38:31.243233 97678 net.cpp:434] relu4b <- conv4b
I0128 22:38:31.243718 97678 net.cpp:395] relu4b -> conv4b (in-place)
I0128 22:38:31.244356 97678 net.cpp:150] Setting up relu4b
I0128 22:38:31.244787 97678 net.cpp:157] Top shape: 1 512 12 14 14 (1204224)
I0128 22:38:31.245179 97678 net.cpp:165] Memory required for data: 581188612
I0128 22:38:31.245584 97678 layer_factory.hpp:77] Creating layer pool4
I0128 22:38:31.246093 97678 net.cpp:100] Creating Layer pool4
I0128 22:38:31.246531 97678 net.cpp:434] pool4 <- conv4b
I0128 22:38:31.246958 97678 net.cpp:408] pool4 -> pool4
I0128 22:38:31.247570 97678 net.cpp:150] Setting up pool4
I0128 22:38:31.247947 97678 net.cpp:157] Top shape: 1 512 6 7 7 (150528)
I0128 22:38:31.248267 97678 net.cpp:165] Memory required for data: 581790724
I0128 22:38:31.248600 97678 layer_factory.hpp:77] Creating layer conv5a
I0128 22:38:31.249058 97678 net.cpp:100] Creating Layer conv5a
I0128 22:38:31.249408 97678 net.cpp:434] conv5a <- pool4
I0128 22:38:31.249810 97678 net.cpp:408] conv5a -> conv5a
I0128 22:38:31.468804 97678 net.cpp:150] Setting up conv5a
I0128 22:38:31.469362 97678 net.cpp:157] Top shape: 1 512 6 7 7 (150528)
I0128 22:38:31.469826 97678 net.cpp:165] Memory required for data: 582392836
I0128 22:38:31.470329 97678 layer_factory.hpp:77] Creating layer relu5a
I0128 22:38:31.470852 97678 net.cpp:100] Creating Layer relu5a
I0128 22:38:31.471303 97678 net.cpp:434] relu5a <- conv5a
I0128 22:38:31.471755 97678 net.cpp:395] relu5a -> conv5a (in-place)
I0128 22:38:31.472398 97678 net.cpp:150] Setting up relu5a
I0128 22:38:31.472875 97678 net.cpp:157] Top shape: 1 512 6 7 7 (150528)
I0128 22:38:31.473352 97678 net.cpp:165] Memory required for data: 582994948
I0128 22:38:31.473752 97678 layer_factory.hpp:77] Creating layer conv5b
I0128 22:38:31.474216 97678 net.cpp:100] Creating Layer conv5b
I0128 22:38:31.474683 97678 net.cpp:434] conv5b <- conv5a
I0128 22:38:31.475186 97678 net.cpp:408] conv5b -> conv5b
I0128 22:38:31.683434 97678 net.cpp:150] Setting up conv5b
I0128 22:38:31.684061 97678 net.cpp:157] Top shape: 1 512 6 7 7 (150528)
I0128 22:38:31.684645 97678 net.cpp:165] Memory required for data: 583597060
I0128 22:38:31.685241 97678 layer_factory.hpp:77] Creating layer relu5b
I0128 22:38:31.685753 97678 net.cpp:100] Creating Layer relu5b
I0128 22:38:31.686295 97678 net.cpp:434] relu5b <- conv5b
I0128 22:38:31.686805 97678 net.cpp:395] relu5b -> conv5b (in-place)
I0128 22:38:31.687978 97678 net.cpp:150] Setting up relu5b
I0128 22:38:31.688457 97678 net.cpp:157] Top shape: 1 512 6 7 7 (150528)
I0128 22:38:31.688947 97678 net.cpp:165] Memory required for data: 584199172
I0128 22:38:31.689385 97678 layer_factory.hpp:77] Creating layer pool5
I0128 22:38:31.689872 97678 net.cpp:100] Creating Layer pool5
I0128 22:38:31.690299 97678 net.cpp:434] pool5 <- conv5b
I0128 22:38:31.690686 97678 net.cpp:408] pool5 -> pool5
I0128 22:38:31.691277 97678 net.cpp:150] Setting up pool5
I0128 22:38:31.691727 97678 net.cpp:157] Top shape: 1 512 3 4 4 (24576)
I0128 22:38:31.692095 97678 net.cpp:165] Memory required for data: 584297476
I0128 22:38:31.692528 97678 layer_factory.hpp:77] Creating layer fc6-new
I0128 22:38:31.692952 97678 net.cpp:100] Creating Layer fc6-new
I0128 22:38:31.693364 97678 net.cpp:434] fc6-new <- pool5
I0128 22:38:31.693773 97678 net.cpp:408] fc6-new -> fc6-new
I0128 22:38:33.101353 97678 net.cpp:150] Setting up fc6-new
I0128 22:38:33.101965 97678 net.cpp:157] Top shape: 1 2048 (2048)
I0128 22:38:33.102526 97678 net.cpp:165] Memory required for data: 584305668
I0128 22:38:33.103082 97678 layer_factory.hpp:77] Creating layer relu6
I0128 22:38:33.103610 97678 net.cpp:100] Creating Layer relu6
I0128 22:38:33.104154 97678 net.cpp:434] relu6 <- fc6-new
I0128 22:38:33.104642 97678 net.cpp:395] relu6 -> fc6-new (in-place)
I0128 22:38:33.105324 97678 net.cpp:150] Setting up relu6
I0128 22:38:33.105813 97678 net.cpp:157] Top shape: 1 2048 (2048)
I0128 22:38:33.106305 97678 net.cpp:165] Memory required for data: 584313860
I0128 22:38:33.106732 97678 layer_factory.hpp:77] Creating layer drop6
I0128 22:38:33.107120 97678 net.cpp:100] Creating Layer drop6
I0128 22:38:33.107553 97678 net.cpp:434] drop6 <- fc6-new
I0128 22:38:33.107947 97678 net.cpp:395] drop6 -> fc6-new (in-place)
I0128 22:38:33.108445 97678 net.cpp:150] Setting up drop6
I0128 22:38:33.108851 97678 net.cpp:157] Top shape: 1 2048 (2048)
I0128 22:38:33.109246 97678 net.cpp:165] Memory required for data: 584322052
I0128 22:38:33.109652 97678 layer_factory.hpp:77] Creating layer fc7-new
I0128 22:38:33.110016 97678 net.cpp:100] Creating Layer fc7-new
I0128 22:38:33.110427 97678 net.cpp:434] fc7-new <- fc6-new
I0128 22:38:33.110857 97678 net.cpp:408] fc7-new -> fc7-new
I0128 22:38:33.229343 97678 net.cpp:150] Setting up fc7-new
I0128 22:38:33.230007 97678 net.cpp:157] Top shape: 1 2048 (2048)
I0128 22:38:33.230602 97678 net.cpp:165] Memory required for data: 584330244
I0128 22:38:33.231209 97678 layer_factory.hpp:77] Creating layer relu7
I0128 22:38:33.231837 97678 net.cpp:100] Creating Layer relu7
I0128 22:38:33.232404 97678 net.cpp:434] relu7 <- fc7-new
I0128 22:38:33.233053 97678 net.cpp:395] relu7 -> fc7-new (in-place)
I0128 22:38:33.233858 97678 net.cpp:150] Setting up relu7
I0128 22:38:33.234438 97678 net.cpp:157] Top shape: 1 2048 (2048)
I0128 22:38:33.234995 97678 net.cpp:165] Memory required for data: 584338436
I0128 22:38:33.235493 97678 layer_factory.hpp:77] Creating layer drop7
I0128 22:38:33.235968 97678 net.cpp:100] Creating Layer drop7
I0128 22:38:33.236460 97678 net.cpp:434] drop7 <- fc7-new
I0128 22:38:33.236917 97678 net.cpp:395] drop7 -> fc7-new (in-place)
I0128 22:38:33.237462 97678 net.cpp:150] Setting up drop7
I0128 22:38:33.237974 97678 net.cpp:157] Top shape: 1 2048 (2048)
I0128 22:38:33.238510 97678 net.cpp:165] Memory required for data: 584346628
I0128 22:38:33.238986 97678 layer_factory.hpp:77] Creating layer fc8-new
I0128 22:38:33.239506 97678 net.cpp:100] Creating Layer fc8-new
I0128 22:38:33.239958 97678 net.cpp:434] fc8-new <- fc7-new
I0128 22:38:33.240393 97678 net.cpp:408] fc8-new -> fc8-new
I0128 22:38:33.243361 97678 net.cpp:150] Setting up fc8-new
I0128 22:38:33.243814 97678 net.cpp:157] Top shape: 1 43 (43)
I0128 22:38:33.244334 97678 net.cpp:165] Memory required for data: 584346800
I0128 22:38:33.244753 97678 layer_factory.hpp:77] Creating layer fc8-new_fc8-new_0_split
I0128 22:38:33.245223 97678 net.cpp:100] Creating Layer fc8-new_fc8-new_0_split
I0128 22:38:33.245620 97678 net.cpp:434] fc8-new_fc8-new_0_split <- fc8-new
I0128 22:38:33.246086 97678 net.cpp:408] fc8-new_fc8-new_0_split -> fc8-new_fc8-new_0_split_0
I0128 22:38:33.246551 97678 net.cpp:408] fc8-new_fc8-new_0_split -> fc8-new_fc8-new_0_split_1
I0128 22:38:33.246922 97678 net.cpp:150] Setting up fc8-new_fc8-new_0_split
I0128 22:38:33.247360 97678 net.cpp:157] Top shape: 1 43 (43)
I0128 22:38:33.247730 97678 net.cpp:157] Top shape: 1 43 (43)
I0128 22:38:33.248107 97678 net.cpp:165] Memory required for data: 584347144
I0128 22:38:33.248468 97678 layer_factory.hpp:77] Creating layer prob
I0128 22:38:33.248853 97678 net.cpp:100] Creating Layer prob
I0128 22:38:33.249220 97678 net.cpp:434] prob <- fc8-new_fc8-new_0_split_0
I0128 22:38:33.249562 97678 net.cpp:408] prob -> prob
I0128 22:38:33.250846 97678 net.cpp:150] Setting up prob
I0128 22:38:33.251261 97678 net.cpp:157] Top shape: 1 43 (43)
I0128 22:38:33.251673 97678 net.cpp:165] Memory required for data: 584347316
I0128 22:38:33.252091 97678 layer_factory.hpp:77] Creating layer loss
I0128 22:38:33.252511 97678 net.cpp:100] Creating Layer loss
I0128 22:38:33.252923 97678 net.cpp:434] loss <- fc8-new_fc8-new_0_split_1
I0128 22:38:33.253284 97678 net.cpp:434] loss <- label
I0128 22:38:33.253701 97678 net.cpp:408] loss -> loss
…
