…
  type: "VideoData"
  top: "data"
  top: "label"
  include {
    phase: TEST
  }
  transform_param {
    mirror: false
    crop_size: 112
    mean_value: 128
    mean_value: 128
    mean_value: 128
  }
  video_data_param {
    source: "/data/sparks/share/asl/experiments/datasets/test/aligned_gctw_sample_test_reduced_fps_class/test_c04.txt"
    batch_size: 1
    shuffle: true
    new_length: 45
    new_height: 128
    new_width: 171
    root_folder: "/data/sparks/share/asl/experiments/datasets/test/aligned_gctw_sample_test_reduced_fps_class/04/"
  }
}
layer {
  name: "conv1a"
  type: "Convolution"
  bottom: "data"
  top: "conv1a"
  param {
    lr_mult: 1
    decay_mult: 1
  }
  param {
    lr_mult: 2
    decay_mult: 0
  }
  convolution_param {
    num_output: 64
    pad: 1
    pad: 1
    pad: 1
    kernel_size: 3
    kernel_size: 3
    kernel_size: 3
    weight_filler {
      type: "gaussian"
      std: 0.01
    }
    bias_filler {
      type: "constant"
      value: 0
    }
  }
}
layer {
  name: "relu1a"
  type: "ReLU"
  bottom: "conv1a"
  top: "conv1a"
}
layer {
  name: "pool1"
  type: "Pooling"
  bottom: "conv1a"
  top: "pool1"
  pooling_param {
    pool: MAX
    kernel_size: 1
    kernel_size: 2
    kernel_size: 2
    stride: 1
    stride: 2
    stride: 2
  }
}
layer {
  name: "conv2a"
  type: "Convolution"
  bottom: "pool1"
  top: "conv2a"
  param {
    lr_mult: 1
    decay_mult: 1
  }
  param {
    lr_mult: 2
    decay_mult: 0
  }
  convolution_param {
    num_output: 128
    pad: 1
    pad: 1
    pad: 1
    kernel_size: 3
    kernel_size: 3
    kernel_size: 3
    weight_filler {
      type: "gaussian"
      std: 0.01
    }
    bias_filler {
      type: "constant"
      value: 1
    }
  }
}
layer {
  name: "relu2a"
  type: "ReLU"
  bottom: "conv2a"
  top: "conv2a"
}
layer {
  name: "pool2"
  type: "Pooling"
  bottom: "conv2a"
  top: "pool2"
  pooling_param {
    pool: MAX
    kernel_size: 2
    kernel_size: 2
    kernel_size: 2
    stride: 2
    stride: 2
    stride: 2
  }
}
layer {
  name: "conv3a"
  type: "Convolution"
  bottom: "pool2"
  top: "conv3a"
  param {
    lr_mult: 1
    decay_mult: 1
  }
  param {
    lr_mult: 2
    decay_mult: 0
  }
  convolution_param {
    num_output: 256
    pad: 1
    pad: 1
    pad: 1
    kernel_size: 3
    kernel_size: 3
    kernel_size: 3
    weight_filler {
      type: "gaussian"
      std: 0.01
    }
    bias_filler {
      type: "constant"
      value: 1
    }
  }
}
layer {
  name: "relu3a"
  type: "ReLU"
  bottom: "conv3a"
  top: "conv3a"
}
layer {
  name: "conv3b"
  type: "Convolution"
  bottom: "conv3a"
  top: "conv3b"
  param {
    lr_mult: 1
    decay_mult: 1
  }
  param {
    lr_mult: 2
    decay_mult: 0
  }
  convolution_param {
    num_output: 256
    pad: 1
    pad: 1
    pad: 1
    kernel_size: 3
    kernel_size: 3
    kernel_size: 3
    weight_filler {
      type: "gaussian"
      std: 0.01
    }
    bias_filler {
      type: "constant"
      value: 1
    }
  }
}
layer {
  name: "relu3b"
  type: "ReLU"
  bottom: "conv3b"
  top: "conv3b"
}
layer {
  name: "pool3"
  type: "Pooling"
  bottom: "conv3b"
  top: "pool3"
  pooling_param {
    pool: MAX
    kernel_size: 2
    kernel_size: 2
    kernel_size: 2
    stride: 2
    stride: 2
    stride: 2
  }
}
layer {
  name: "conv4a"
  type: "Convolution"
  bottom: "pool3"
  top: "conv4a"
  param {
    lr_mult: 1
    decay_mult: 1
  }
  param {
    lr_mult: 2
    decay_mult: 0
  }
  convolution_param {
    num_output: 512
    pad: 1
    pad: 1
    pad: 1
    kernel_size: 3
    kernel_size: 3
    kernel_size: 3
    weight_filler {
      type: "gaussian"
      std: 0.01
    }
    bias_filler {
      type: "constant"
      value: 1
    }
  }
}
layer {
  name: "relu4a"
  type: "ReLU"
  bottom: "conv4a"
  top: "conv4a"
}
layer {
  name: "conv4b"
  type: "Convolution"
  bottom: "conv4a"
  top: "conv4b"
  param {
    lr_mult: 1
    decay_mult: 1
  }
  param {
    lr_mult: 2
    decay_mult: 0
  }
  convolution_param {
    num_output: 512
    pad: 1
    pad: 1
    pad: 1
    kernel_size: 3
    kernel_size: 3
    kernel_size: 3
    weight_filler {
      type: "gaussian"
      std: 0.01
    }
    bias_filler {
      type: "constant"
      value: 1
    }
  }
}
layer {
  name: "relu4b"
  type: "ReLU"
  bottom: "conv4b"
  top: "conv4b"
}
layer {
  name: "pool4"
  type: "Pooling"
  bottom: "conv4b"
  top: "pool4"
  pooling_param {
    pool: MAX
    kernel_size: 2
    kernel_size: 2
    kernel_size: 2
    stride: 2
    stride: 2
    stride: 2
  }
}
layer {
  name: "conv5a"
  type: "Convolution"
  bottom: "pool4"
  top: "conv5a"
  param {
    lr_mult: 1
    decay_mult: 1
  }
  param {
    lr_mult: 2
    decay_mult: 0
  }
  convolution_param {
    num_output: 512
    pad: 1
    pad: 1
    pad: 1
    kernel_size: 3
    kernel_size: 3
    kernel_size: 3
    weight_filler {
      type: "gaussian"
      std: 0.01
    }
    bias_filler {
      type: "constant"
      value: 1
    }
  }
}
layer {
  name: "relu5a"
  type: "ReLU"
  bottom: "conv5a"
  top: "conv5a"
}
layer {
  name: "conv5b"
  type: "Convolution"
  bottom: "conv5a"
  top: "conv5b"
  param {
    lr_mult: 1
    decay_mult: 1
  }
  param {
    lr_mult: 2
    decay_mult: 0
  }
  convolution_param {
    num_output: 512
    pad: 1
    pad: 1
    pad: 1
    kernel_size: 3
    kernel_size: 3
    kernel_size: 3
    weight_filler {
      type: "gaussian"
      std: 0.01
    }
    bias_filler {
      type: "constant"
      value: 1
    }
  }
}
layer {
  name: "relu5b"
  type: "ReLU"
  bottom: "conv5b"
  top: "conv5b"
}
layer {
  name: "pool5"
  type: "Pooling"
  bottom: "conv5b"
  top: "pool5"
  pooling_param {
    pool: MAX
    kernel_size: 2
    kernel_size: 2
    kernel_size: 2
    stride: 2
    stride: 2
    stride: 2
  }
}
layer {
  name: "fc6-new"
  type: "InnerProduct"
  bottom: "pool5"
  top: "fc6-new"
  param {
    lr_mult: 1
    decay_mult: 1
  }
  param {
    lr_mult: 2
    decay_mult: 0
  }
  inner_product_param {
    num_output: 2048
    weight_filler {
      type: "gaussian"
      std: 0.005
    }
    bias_filler {
      type: "constant"
      value: 1
    }
  }
}
layer {
  name: "relu6"
  type: "ReLU"
  bottom: "fc6-new"
  top: "fc6-new"
}
layer {
  name: "drop6"
  type: "Dropout"
  bottom: "fc6-new"
  top: "fc6-new"
  dropout_param {
    dropout_ratio: 0.5
  }
}
layer {
  name: "fc7-new"
  type: "InnerProduct"
  bottom: "fc6-new"
  top: "fc7-new"
  param {
    lr_mult: 1
    decay_mult: 1
  }
  param {
    lr_mult: 2
    decay_mult: 0
  }
  inner_product_param {
    num_output: 2048
    weight_filler {
      type: "gaussian"
      std: 0.005
    }
    bias_filler {
      type: "constant"
      value: 1
    }
  }
}
layer {
  name: "relu7"
  type: "ReLU"
  bottom: "fc7-new"
  top: "fc7-new"
}
layer {
  name: "drop7"
  type: "Dropout"
  bottom: "fc7-new"
  top: "fc7-new"
  dropout_param {
    dropout_ratio: 0.5
  }
}
layer {
  name: "fc8-new"
  type: "InnerProduct"
  bottom: "fc7-new"
  top: "fc8-new"
  param {
    lr_mult: 1
    decay_mult: 1
  }
  param {
    lr_mult: 2
    decay_mult: 0
  }
  inner_product_param {
    num_output: 43
    weight_filler {
      type: "gaussian"
      std: 0.01
    }
    bias_filler {
      type: "constant"
      value: 0
    }
  }
}
layer {
  name: "prob"
  type: "Softmax"
  bottom: "fc8-new"
  top: "prob"
  include {
    phase: TEST
  }
}
layer {
  name: "loss"
  type: "SoftmaxWithLoss"
  bottom: "fc8-new"
  bottom: "label"
  top: "loss"
}
I0128 22:20:03.971410 97457 layer_factory.hpp:77] Creating layer data
I0128 22:20:03.972046 97457 net.cpp:100] Creating Layer data
I0128 22:20:03.972632 97457 net.cpp:408] data -> data
I0128 22:20:03.973168 97457 net.cpp:408] data -> label
I0128 22:20:03.973752 97457 video_data_layer.cpp:39] Opening file /data/sparks/share/asl/experiments/datasets/test/aligned_gctw_sample_test_reduced_fps_class/test_c04.txt
I0128 22:20:04.023582 97457 video_data_layer.cpp:54] Shuffling data
I0128 22:20:04.024487 97457 video_data_layer.cpp:59] A total of 6 video chunks.
I0128 22:20:04.846182 97457 video_data_layer.cpp:100] output data size: 1,3,45,112,112
I0128 22:20:04.860841 97457 net.cpp:150] Setting up data
I0128 22:20:04.861413 97457 net.cpp:157] Top shape: 1 3 45 112 112 (1693440)
I0128 22:20:04.861968 97457 net.cpp:157] Top shape: 1 (1)
I0128 22:20:04.872555 97457 net.cpp:165] Memory required for data: 6773764
I0128 22:20:04.873114 97457 layer_factory.hpp:77] Creating layer conv1a
I0128 22:20:04.873602 97457 net.cpp:100] Creating Layer conv1a
I0128 22:20:04.874096 97457 net.cpp:434] conv1a <- data
I0128 22:20:04.874586 97457 net.cpp:408] conv1a -> conv1a
I0128 22:20:05.177554 97457 net.cpp:150] Setting up conv1a
I0128 22:20:05.178086 97457 net.cpp:157] Top shape: 1 64 45 112 112 (36126720)
I0128 22:20:05.178558 97457 net.cpp:165] Memory required for data: 151280644
I0128 22:20:05.179227 97457 layer_factory.hpp:77] Creating layer relu1a
I0128 22:20:05.179682 97457 net.cpp:100] Creating Layer relu1a
I0128 22:20:05.180052 97457 net.cpp:434] relu1a <- conv1a
I0128 22:20:05.180506 97457 net.cpp:395] relu1a -> conv1a (in-place)
I0128 22:20:05.181017 97457 net.cpp:150] Setting up relu1a
I0128 22:20:05.181296 97457 net.cpp:157] Top shape: 1 64 45 112 112 (36126720)
I0128 22:20:05.181732 97457 net.cpp:165] Memory required for data: 295787524
I0128 22:20:05.182088 97457 layer_factory.hpp:77] Creating layer pool1
I0128 22:20:05.182524 97457 net.cpp:100] Creating Layer pool1
I0128 22:20:05.182917 97457 net.cpp:434] pool1 <- conv1a
I0128 22:20:05.183293 97457 net.cpp:408] pool1 -> pool1
I0128 22:20:05.184550 97457 net.cpp:150] Setting up pool1
I0128 22:20:05.184990 97457 net.cpp:157] Top shape: 1 64 45 56 56 (9031680)
I0128 22:20:05.185353 97457 net.cpp:165] Memory required for data: 331914244
I0128 22:20:05.185705 97457 layer_factory.hpp:77] Creating layer conv2a
I0128 22:20:05.186075 97457 net.cpp:100] Creating Layer conv2a
I0128 22:20:05.186357 97457 net.cpp:434] conv2a <- pool1
I0128 22:20:05.186630 97457 net.cpp:408] conv2a -> conv2a
I0128 22:20:05.195554 97457 net.cpp:150] Setting up conv2a
I0128 22:20:05.196002 97457 net.cpp:157] Top shape: 1 128 45 56 56 (18063360)
I0128 22:20:05.196547 97457 net.cpp:165] Memory required for data: 404167684
I0128 22:20:05.197036 97457 layer_factory.hpp:77] Creating layer relu2a
I0128 22:20:05.197518 97457 net.cpp:100] Creating Layer relu2a
I0128 22:20:05.197944 97457 net.cpp:434] relu2a <- conv2a
I0128 22:20:05.198511 97457 net.cpp:395] relu2a -> conv2a (in-place)
I0128 22:20:05.199039 97457 net.cpp:150] Setting up relu2a
I0128 22:20:05.199465 97457 net.cpp:157] Top shape: 1 128 45 56 56 (18063360)
I0128 22:20:05.199790 97457 net.cpp:165] Memory required for data: 476421124
I0128 22:20:05.200126 97457 layer_factory.hpp:77] Creating layer pool2
I0128 22:20:05.200508 97457 net.cpp:100] Creating Layer pool2
I0128 22:20:05.200906 97457 net.cpp:434] pool2 <- conv2a
I0128 22:20:05.201205 97457 net.cpp:408] pool2 -> pool2
I0128 22:20:05.201728 97457 net.cpp:150] Setting up pool2
I0128 22:20:05.202015 97457 net.cpp:157] Top shape: 1 128 23 28 28 (2308096)
I0128 22:20:05.202340 97457 net.cpp:165] Memory required for data: 485653508
I0128 22:20:05.202647 97457 layer_factory.hpp:77] Creating layer conv3a
I0128 22:20:05.203023 97457 net.cpp:100] Creating Layer conv3a
I0128 22:20:05.203393 97457 net.cpp:434] conv3a <- pool2
I0128 22:20:05.203768 97457 net.cpp:408] conv3a -> conv3a
I0128 22:20:05.231775 97457 net.cpp:150] Setting up conv3a
I0128 22:20:05.232197 97457 net.cpp:157] Top shape: 1 256 23 28 28 (4616192)
I0128 22:20:05.232511 97457 net.cpp:165] Memory required for data: 504118276
I0128 22:20:05.233023 97457 layer_factory.hpp:77] Creating layer relu3a
I0128 22:20:05.233495 97457 net.cpp:100] Creating Layer relu3a
I0128 22:20:05.233903 97457 net.cpp:434] relu3a <- conv3a
I0128 22:20:05.234252 97457 net.cpp:395] relu3a -> conv3a (in-place)
I0128 22:20:05.234935 97457 net.cpp:150] Setting up relu3a
I0128 22:20:05.235229 97457 net.cpp:157] Top shape: 1 256 23 28 28 (4616192)
I0128 22:20:05.235595 97457 net.cpp:165] Memory required for data: 522583044
I0128 22:20:05.235893 97457 layer_factory.hpp:77] Creating layer conv3b
I0128 22:20:05.236150 97457 net.cpp:100] Creating Layer conv3b
I0128 22:20:05.236475 97457 net.cpp:434] conv3b <- conv3a
I0128 22:20:05.236713 97457 net.cpp:408] conv3b -> conv3b
I0128 22:20:05.289194 97457 net.cpp:150] Setting up conv3b
I0128 22:20:05.289752 97457 net.cpp:157] Top shape: 1 256 23 28 28 (4616192)
I0128 22:20:05.290343 97457 net.cpp:165] Memory required for data: 541047812
I0128 22:20:05.290938 97457 layer_factory.hpp:77] Creating layer relu3b
I0128 22:20:05.291451 97457 net.cpp:100] Creating Layer relu3b
I0128 22:20:05.291848 97457 net.cpp:434] relu3b <- conv3b
I0128 22:20:05.292407 97457 net.cpp:395] relu3b -> conv3b (in-place)
I0128 22:20:05.292940 97457 net.cpp:150] Setting up relu3b
I0128 22:20:05.293314 97457 net.cpp:157] Top shape: 1 256 23 28 28 (4616192)
I0128 22:20:05.293663 97457 net.cpp:165] Memory required for data: 559512580
I0128 22:20:05.294003 97457 layer_factory.hpp:77] Creating layer pool3
I0128 22:20:05.294342 97457 net.cpp:100] Creating Layer pool3
I0128 22:20:05.294730 97457 net.cpp:434] pool3 <- conv3b
I0128 22:20:05.295054 97457 net.cpp:408] pool3 -> pool3
I0128 22:20:05.296099 97457 net.cpp:150] Setting up pool3
I0128 22:20:05.296407 97457 net.cpp:157] Top shape: 1 256 12 14 14 (602112)
I0128 22:20:05.296694 97457 net.cpp:165] Memory required for data: 561921028
I0128 22:20:05.297014 97457 layer_factory.hpp:77] Creating layer conv4a
I0128 22:20:05.297314 97457 net.cpp:100] Creating Layer conv4a
I0128 22:20:05.297616 97457 net.cpp:434] conv4a <- pool3
I0128 22:20:05.297947 97457 net.cpp:408] conv4a -> conv4a
I0128 22:20:05.402894 97457 net.cpp:150] Setting up conv4a
I0128 22:20:05.412953 97457 net.cpp:157] Top shape: 1 512 12 14 14 (1204224)
I0128 22:20:05.413513 97457 net.cpp:165] Memory required for data: 566737924
I0128 22:20:05.413971 97457 layer_factory.hpp:77] Creating layer relu4a
I0128 22:20:05.414404 97457 net.cpp:100] Creating Layer relu4a
I0128 22:20:05.414796 97457 net.cpp:434] relu4a <- conv4a
I0128 22:20:05.415220 97457 net.cpp:395] relu4a -> conv4a (in-place)
I0128 22:20:05.415771 97457 net.cpp:150] Setting up relu4a
I0128 22:20:05.416141 97457 net.cpp:157] Top shape: 1 512 12 14 14 (1204224)
I0128 22:20:05.416573 97457 net.cpp:165] Memory required for data: 571554820
I0128 22:20:05.417008 97457 layer_factory.hpp:77] Creating layer conv4b
I0128 22:20:05.417430 97457 net.cpp:100] Creating Layer conv4b
I0128 22:20:05.417796 97457 net.cpp:434] conv4b <- conv4a
I0128 22:20:05.418143 97457 net.cpp:408] conv4b -> conv4b
I0128 22:20:05.635226 97457 net.cpp:150] Setting up conv4b
I0128 22:20:05.635870 97457 net.cpp:157] Top shape: 1 512 12 14 14 (1204224)
I0128 22:20:05.636405 97457 net.cpp:165] Memory required for data: 576371716
I0128 22:20:05.636940 97457 layer_factory.hpp:77] Creating layer relu4b
I0128 22:20:05.637419 97457 net.cpp:100] Creating Layer relu4b
I0128 22:20:05.637863 97457 net.cpp:434] relu4b <- conv4b
I0128 22:20:05.638334 97457 net.cpp:395] relu4b -> conv4b (in-place)
I0128 22:20:05.639118 97457 net.cpp:150] Setting up relu4b
I0128 22:20:05.639552 97457 net.cpp:157] Top shape: 1 512 12 14 14 (1204224)
I0128 22:20:05.639986 97457 net.cpp:165] Memory required for data: 581188612
I0128 22:20:05.640332 97457 layer_factory.hpp:77] Creating layer pool4
I0128 22:20:05.640664 97457 net.cpp:100] Creating Layer pool4
I0128 22:20:05.640959 97457 net.cpp:434] pool4 <- conv4b
I0128 22:20:05.641299 97457 net.cpp:408] pool4 -> pool4
I0128 22:20:05.641837 97457 net.cpp:150] Setting up pool4
I0128 22:20:05.642163 97457 net.cpp:157] Top shape: 1 512 6 7 7 (150528)
I0128 22:20:05.642463 97457 net.cpp:165] Memory required for data: 581790724
I0128 22:20:05.642767 97457 layer_factory.hpp:77] Creating layer conv5a
I0128 22:20:05.643179 97457 net.cpp:100] Creating Layer conv5a
I0128 22:20:05.643579 97457 net.cpp:434] conv5a <- pool4
I0128 22:20:05.643954 97457 net.cpp:408] conv5a -> conv5a
I0128 22:20:05.857954 97457 net.cpp:150] Setting up conv5a
I0128 22:20:05.858659 97457 net.cpp:157] Top shape: 1 512 6 7 7 (150528)
I0128 22:20:05.859295 97457 net.cpp:165] Memory required for data: 582392836
I0128 22:20:05.859783 97457 layer_factory.hpp:77] Creating layer relu5a
I0128 22:20:05.860306 97457 net.cpp:100] Creating Layer relu5a
I0128 22:20:05.860792 97457 net.cpp:434] relu5a <- conv5a
I0128 22:20:05.861287 97457 net.cpp:395] relu5a -> conv5a (in-place)
I0128 22:20:05.861840 97457 net.cpp:150] Setting up relu5a
I0128 22:20:05.862243 97457 net.cpp:157] Top shape: 1 512 6 7 7 (150528)
I0128 22:20:05.862612 97457 net.cpp:165] Memory required for data: 582994948
I0128 22:20:05.862921 97457 layer_factory.hpp:77] Creating layer conv5b
I0128 22:20:05.863319 97457 net.cpp:100] Creating Layer conv5b
I0128 22:20:05.863654 97457 net.cpp:434] conv5b <- conv5a
I0128 22:20:05.864068 97457 net.cpp:408] conv5b -> conv5b
I0128 22:20:06.065634 97457 net.cpp:150] Setting up conv5b
I0128 22:20:06.066174 97457 net.cpp:157] Top shape: 1 512 6 7 7 (150528)
I0128 22:20:06.066718 97457 net.cpp:165] Memory required for data: 583597060
I0128 22:20:06.067169 97457 layer_factory.hpp:77] Creating layer relu5b
I0128 22:20:06.067643 97457 net.cpp:100] Creating Layer relu5b
I0128 22:20:06.068011 97457 net.cpp:434] relu5b <- conv5b
I0128 22:20:06.068367 97457 net.cpp:395] relu5b -> conv5b (in-place)
I0128 22:20:06.069396 97457 net.cpp:150] Setting up relu5b
I0128 22:20:06.069723 97457 net.cpp:157] Top shape: 1 512 6 7 7 (150528)
I0128 22:20:06.070147 97457 net.cpp:165] Memory required for data: 584199172
I0128 22:20:06.070488 97457 layer_factory.hpp:77] Creating layer pool5
I0128 22:20:06.070832 97457 net.cpp:100] Creating Layer pool5
I0128 22:20:06.071143 97457 net.cpp:434] pool5 <- conv5b
I0128 22:20:06.071511 97457 net.cpp:408] pool5 -> pool5
I0128 22:20:06.072070 97457 net.cpp:150] Setting up pool5
I0128 22:20:06.072422 97457 net.cpp:157] Top shape: 1 512 3 4 4 (24576)
I0128 22:20:06.072734 97457 net.cpp:165] Memory required for data: 584297476
I0128 22:20:06.073072 97457 layer_factory.hpp:77] Creating layer fc6-new
I0128 22:20:06.073431 97457 net.cpp:100] Creating Layer fc6-new
I0128 22:20:06.073731 97457 net.cpp:434] fc6-new <- pool5
I0128 22:20:06.074048 97457 net.cpp:408] fc6-new -> fc6-new
I0128 22:20:07.868199 97457 net.cpp:150] Setting up fc6-new
I0128 22:20:07.868966 97457 net.cpp:157] Top shape: 1 2048 (2048)
I0128 22:20:07.869645 97457 net.cpp:165] Memory required for data: 584305668
I0128 22:20:07.870213 97457 layer_factory.hpp:77] Creating layer relu6
I0128 22:20:07.870788 97457 net.cpp:100] Creating Layer relu6
I0128 22:20:07.871425 97457 net.cpp:434] relu6 <- fc6-new
I0128 22:20:07.871942 97457 net.cpp:395] relu6 -> fc6-new (in-place)
I0128 22:20:07.872637 97457 net.cpp:150] Setting up relu6
I0128 22:20:07.873105 97457 net.cpp:157] Top shape: 1 2048 (2048)
I0128 22:20:07.873641 97457 net.cpp:165] Memory required for data: 584313860
I0128 22:20:07.874109 97457 layer_factory.hpp:77] Creating layer drop6
I0128 22:20:07.874569 97457 net.cpp:100] Creating Layer drop6
I0128 22:20:07.875056 97457 net.cpp:434] drop6 <- fc6-new
I0128 22:20:07.875481 97457 net.cpp:395] drop6 -> fc6-new (in-place)
I0128 22:20:07.875939 97457 net.cpp:150] Setting up drop6
I0128 22:20:07.876350 97457 net.cpp:157] Top shape: 1 2048 (2048)
I0128 22:20:07.876741 97457 net.cpp:165] Memory required for data: 584322052
I0128 22:20:07.877174 97457 layer_factory.hpp:77] Creating layer fc7-new
I0128 22:20:07.877640 97457 net.cpp:100] Creating Layer fc7-new
I0128 22:20:07.878062 97457 net.cpp:434] fc7-new <- fc6-new
I0128 22:20:07.878392 97457 net.cpp:408] fc7-new -> fc7-new
I0128 22:20:08.026386 97457 net.cpp:150] Setting up fc7-new
I0128 22:20:08.027036 97457 net.cpp:157] Top shape: 1 2048 (2048)
I0128 22:20:08.027721 97457 net.cpp:165] Memory required for data: 584330244
I0128 22:20:08.028311 97457 layer_factory.hpp:77] Creating layer relu7
I0128 22:20:08.028884 97457 net.cpp:100] Creating Layer relu7
I0128 22:20:08.029439 97457 net.cpp:434] relu7 <- fc7-new
I0128 22:20:08.030025 97457 net.cpp:395] relu7 -> fc7-new (in-place)
I0128 22:20:08.030923 97457 net.cpp:150] Setting up relu7
I0128 22:20:08.031366 97457 net.cpp:157] Top shape: 1 2048 (2048)
I0128 22:20:08.031960 97457 net.cpp:165] Memory required for data: 584338436
I0128 22:20:08.032408 97457 layer_factory.hpp:77] Creating layer drop7
I0128 22:20:08.032835 97457 net.cpp:100] Creating Layer drop7
I0128 22:20:08.033265 97457 net.cpp:434] drop7 <- fc7-new
I0128 22:20:08.033731 97457 net.cpp:395] drop7 -> fc7-new (in-place)
I0128 22:20:08.034250 97457 net.cpp:150] Setting up drop7
I0128 22:20:08.034687 97457 net.cpp:157] Top shape: 1 2048 (2048)
I0128 22:20:08.035065 97457 net.cpp:165] Memory required for data: 584346628
I0128 22:20:08.035430 97457 layer_factory.hpp:77] Creating layer fc8-new
I0128 22:20:08.035778 97457 net.cpp:100] Creating Layer fc8-new
I0128 22:20:08.036047 97457 net.cpp:434] fc8-new <- fc7-new
I0128 22:20:08.036370 97457 net.cpp:408] fc8-new -> fc8-new
I0128 22:20:08.039858 97457 net.cpp:150] Setting up fc8-new
I0128 22:20:08.040246 97457 net.cpp:157] Top shape: 1 43 (43)
I0128 22:20:08.040712 97457 net.cpp:165] Memory required for data: 584346800
I0128 22:20:08.041118 97457 layer_factory.hpp:77] Creating layer fc8-new_fc8-new_0_split
I0128 22:20:08.041563 97457 net.cpp:100] Creating Layer fc8-new_fc8-new_0_split
I0128 22:20:08.041915 97457 net.cpp:434] fc8-new_fc8-new_0_split <- fc8-new
I0128 22:20:08.042269 97457 net.cpp:408] fc8-new_fc8-new_0_split -> fc8-new_fc8-new_0_split_0
I0128 22:20:08.042613 97457 net.cpp:408] fc8-new_fc8-new_0_split -> fc8-new_fc8-new_0_split_1
I0128 22:20:08.043054 97457 net.cpp:150] Setting up fc8-new_fc8-new_0_split
I0128 22:20:08.043418 97457 net.cpp:157] Top shape: 1 43 (43)
I0128 22:20:08.043776 97457 net.cpp:157] Top shape: 1 43 (43)
I0128 22:20:08.044045 97457 net.cpp:165] Memory required for data: 584347144
I0128 22:20:08.044329 97457 layer_factory.hpp:77] Creating layer prob
I0128 22:20:08.044708 97457 net.cpp:100] Creating Layer prob
I0128 22:20:08.045110 97457 net.cpp:434] prob <- fc8-new_fc8-new_0_split_0
I0128 22:20:08.045522 97457 net.cpp:408] prob -> prob
I0128 22:20:08.046681 97457 net.cpp:150] Setting up prob
I0128 22:20:08.047006 97457 net.cpp:157] Top shape: 1 43 (43)
I0128 22:20:08.047304 97457 net.cpp:165] Memory required for data: 584347316
I0128 22:20:08.047669 97457 layer_factory.hpp:77] Creating layer loss
I0128 22:20:08.048022 97457 net.cpp:100] Creating Layer loss
I0128 22:20:08.048375 97457 net.cpp:434] loss <- fc8-new_fc8-new_0_split_1
I0128 22:20:08.048683 97457 net.cpp:434] loss <- label
I0128 22:20:08.048956 97457 net.cpp:408] loss -> loss
…
